app/src/main/ml/word_seg_model.tflite (tflite, 965444 bytes, 52 tensors)

embedding_1/embeddings f4 [114, 256]
0.04669745 0.02501503 -0.009909354 0.015422348 -0.005759407 -0.047272194 -0.002426695 0.02385297
-0.027607858 0.03264172 -0.017115641 0.03160471 -0.013033558 0.02181277 -0.032960355 -0.021909107
0.021524344 0.02412844 0.026359651 -0.036972534 -0.03074336 -0.043622006 -0.044864703 -0.017517436
-9.55835e-05 -0.03008467 -0.027611542 0.036655392 -0.028874982 -0.012407947 0.016298663 -0.030807806
-0.00373571 -0.039229523 -0.020118797 -0.026856124 -0.041914452 0.0374952 -0.009735763 -0.047253907
-0.014128111 -0.025143957 0.021677744 -0.005960416 0.010532834 0.009128392 0.0048845634 0.041663077
0.0074077733 -0.038481593 -0.015619386 -0.005566787 -0.0027639642 -0.023333931 -0.015981436 0.04677746
0.028773192 -0.01646484 -0.023129785 0.039173078 0.03405093 0.040303793 0.009858858 -0.020504976
0.0061075315 0.003963113 0.016842533 0.023664001 0.03885976 -0.04796002 -0.04389558 -0.01756804
0.04953828 -0.043464568 -0.03608211 -0.0013909936 -0.03511076 -0.030174613 0.042095575 -0.010198772
-0.026699161 -0.0067279935 -0.04000684 0.027280282 -0.02745502 -0.046146024 -0.008743405 0.019429412
0.024897348 0.01899213 -0.03243903 0.028506014 0.0028180964 0.021368016 -0.011562444 0.0041328073
0.019798089 -0.042717256 0.03697786 -0.016512416 0.01677413 0.003977608 0.040367234 -0.027972091
-0.016876388 -0.005203951 0.04790472 -0.02948301 0.0466477 -0.03997637 0.023418318 0.027500037
-0.030893981 0.00870242 0.047821973 0.03343526 -0.036565043 0.003605105 0.016913284 -0.013947379
-0.035816252 0.02448431 -0.044931043 0.0124828 0.049588624 -0.0051649697 0.030900288 -0.014050603
0.017200653 -0.026670337 -0.049862016 -0.04792385 -0.011754952 0.0016767867 0.048291814 -0.04628488
-0.047928322 0.033194486 -0.03102659 -0.044911396 -0.0023469105 -0.012208153 -0.0066225156 0.0005568862
0.026507866 0.022760894 -0.03307332 0.020646695 0.040322635 -0.047231566 -0.0064950585 0.0040498264
-0.03644637 0.04628325 0.022158515 0.02049644 -0.044211246 -0.0365782 0.03143623 -0.043148614
0.0060359016 -0.020590281 -0.004795909 -0.04504006 0.027657356 0.023625258 -0.04866543 0.023943398
-0.036123015 -0.03525715 0.0069988742 -0.024746561 0.020236108 -0.008398652 -0.015391268 -0.017858349
0.01637632 -0.017902613 -0.01153196 -0.03633977 0.001697816 -0.025393426 0.034113597 0.0032523386
0.04676977 0.0439069 -0.0031311288 0.041707758 0.028696965 0.040212 0.0023044832 0.0386603
0.046538997 -0.012112331 -0.046959903 0.004496254 -0.04677483 -0.044409264 0.04581329 0.038927916
-0.0385787 0.02764422 0.0019491427 -0.01786282 0.04177126 0.044802498 0.03690609 0.021374572
0.0464178 0.022069607 0.025748882 -0.010767065 -0.028020298 -0.025490273 0.011618137 -0.011303544
0.0047562346 0.000559438 0.026054565 -0.04865725 0.00033951923 -0.004616022 -0.026499689 0.016102266
0.028237786 -0.03137231 -0.0081110485 -0.04149581 0.03710263 -0.020635342 -0.035408545 -0.019053806
0.039934684 0.049498606 0.006207384 0.0011738166 0.048392687 -0.040417314 -0.015024029 0.046746064
-0.0057614446 0.040909793 -0.022263205 0.035633814 0.030020963 0.00678245 -0.01052352 0.04794612
-0.014114905 0.030315232 -0.036221586 0.028773416 0.018134002 0.021857288 -0.014170695 -0.012898516
00000000: d345 3f3d 52ec cc3c d85a 22bc 04ae 7c3c
00000010: 68b9 bcbb 7da0 41bd 3009 1fbb 4e67 c33c
00000020: e029 e2bc 53b3 053d 1a36 8cbc f173 013d
00000030: b48a 55bc b2b0 b23c 7001 07bd ba7a b3bc
00000040: d253 b03c 02a9 c53c 32f0 d73c 8370 17bd
00000050: 80d9 fbbc fdac 32bd 0dc4 37bd ba80 8fbc
00000060: 0074 c8b8 2074 f6bc 9a31 e2bc f723 163d
00000070: 3a8b ecbc b44a 4bbc c684 853c a760 fcbc
00000080: d0d2 74bb 23af 20bd 2dd0 a4bc 6001 dcbc
00000090: 7dae 2bbd 9194 193d c082 1fbc 508d 41bd
000000a0: 9879 67bc b3fa cdbc 8695 b13c 984f c3bb
000000b0: e891 2c3c 408f 153c b00e a03b e7a6 2a3d
000000c0: e8bc f23b e09e 1dbd 74e8 7fbc 9869 b6bb
000000d0: a023 35bb cd26 bfbc 80eb 82bc b999 3f3d
000000e0: c2b5 eb3c 46e1 86bc ad7a bdbc f373 203d
000000f0: fd78 0b3d 9715 253d 0c87 213c 0dfa a7bc
00000100: b021 c83b 00dd 813b 5af9 893c 02db c13c
00000110: 692b 1f3d ba71 44bd dacb 33bd daea 8fbc
00000120: a7e8 4a3d e707 32bd d6ca 13bd 0052 b6ba
00000130: 4dd0 0fbd c030 f7bc 696c 2c3d c018 27bc
00000140: 33b8 dabc 8076 dcbb 36de 23bd e67a df3c
00000150: 5ae9 e0bc 9d03 3dbd 8040 0fbc 6e2a 9f3c
00000160: 86f5 cb3c 6295 9b3c cade 04bd 7285 e93c
00000170: d0af 383b fa0b af3c 6870 3dbc 806c 873b
00000180: 9a2f a23c 4af8 2ebd 1976 173d 0c45 87bc
00000190: e669 893c 9856 823b 1d58 253d ba25 e5bc
000001a0: 5a40 8abc e885 aabb bd37 443d 5a86 f1bc
000001b0: a911 3f3d 43be 23bd c6d7 bf3c c247 e13c
000001c0: 6015 fdbc 9894 0e3c f9e0 433d 69f3 083d
000001d0: 3ac5 15bd a043 6c3b ba8d 8a3c 8c83 64bc
000001e0: 10b4 12bd 5293 c83c 9d09 38bd a884 4c3c
000001f0: 711d 4b3d e83e a9bb 9a22 fd3c 8034 66bc
00000200: 62e8 8c3c c07b dabc 1d3c 4cbd cd4b 44bd
00000210: d897 40bc a0c7 db3a a3cd 453d 3795 3dbd
00000220: 7d50 44bd f1f6 073d 7a2b febc 03f5 37bd
00000230: a0ce 19bb b404 48bc b001 d9bb 00fc 113a
00000240: 0627 d93c 0e75 ba3c e477 07bd 4223 a93c
00000250: 5929 253d e375 41bd 80d4 d4bb 68b4 843b
00000260: ca48 15bd 8193 3d3d c685 b53c 26e8 a73c
00000270: da16 35bd 06d3 15bd 47c3 003d 9abc 30bd
00000280: d0c8 c53b f3ac a8bc 0027 9dbb ed7b 38bd
00000290: ae91 e23c c289 c13c 6755 47bd f224 c43c
000002a0: baf5 13bd cd69 10bd d056 e53b 4db9 cabc
000002b0: 32c6 a53c 809a 09bc a82b 7cbc ac4b 92bc
000002c0: a227 863c 80a8 92bc 8cf0 3cbc 03d9 14bd
000002d0: 4089 de3a e005 d0bc b3ba 0b3d 3025 553b
000002e0: a991 3f3d b9d7 333d a033 4dbb c1d5 2a3d
000002f0: e615 eb3c 57b5 243d d006 173b 435a 1e3d
00000300: ad9f 3e3d cc72 46bc 0759 40bd 5055 933b
00000310: f796 3fbd 7de6 35bd b7a6 3b3d e172 1f3d
00000320: b304 1ebd 2276 e23c 607a ff3a 0c55 92bc
00000330: 5718 2b3d d382 373d d72a 173d ba19 af3c
00000340: 9720 3e3d 52cb b43c 52ef d23c 5868 30bc
00000350: d38a e5bc fad0 d0bc 005a 3e3c 8032 39bc
00000360: 30da 9b3b 40a7 123a 6270 d53c d34c 47bd
00000370: 8001 b239 0042 97bb e015 d9bc e6e8 833c
00000380: ee52 e73c 4080 00bd 34e4 04bc 83f7 29bd
00000390: edf8 173d 730b a9bc 8d08 11bd ba16 9cbc
000003a0: 8d92 233d 0dbf 4a3d 5067 cb3b c0da 993a
000003b0: 6937 463d a08c 25bd 5827 76bc cd78 3f3d
000003c0: 80ca bcbb 0791 273d 5361 b6bc c3f4 113d
000003d0: 86ee f53c 503f de3b d86a 2cbc 2763 443d
000003e0: 3442 67bc a657 f83c 165d 14bd 3ab6 eb3c
000003f0: c28d 943c 0e0e b33c 342c 68bc 4c54 53bc

dense_2/bias f4 [64]
0.0245127 0.041030355 0.0077365744 0.013167664 0.05029906 0.00036869635 -0.005689462 -0.010022655
0.049790703 0.019655468 0.0021907669 0.019412579 0.052552834 -0.0048492607 0.009096161 0.015401864
0.05275151 -0.0021467549 -0.008660601 0.014472072 0.0031073287 0.009588304 0.027747659 0.025984809
0.04903304 0.025503833 -0.012504848 0.014926472 -0.0026559501 0.026611825 -5.5180873e-05 0.021156915
0.013695795 -0.024108125 0.038415898 0.032609366 -0.0052186754 0.009114756 0.0056245327 0.05190145
-0.013185499 0.025311697 -0.013410725 0.077167675 0.040877335 0.00046397126 0.02948794 0.034004986
0.049061883 0.017189244 -0.0022492905 0.028098172 0.022229576 0.037834633 0.011318021 0.028687112
-0.0053698174 -0.014043841 0.037755996 0.0044366424 -0.0013426841 0.030137205 -0.012578173 0.012483933
00000000: dcce c83c 720f 283d 1783 fd3b 30bd 573c
00000010: 6306 4e3d 964d c139 ab6e babb 1036 24bc
00000020: 56f1 4b3d 8104 a13c f892 0f3b 2107 9f3c
00000030: a441 573d 8ce6 9ebb 1108 153c 1a58 7c3c
00000040: f811 583d 92b0 0cbb 32e5 0dbc 451c 6d3c
00000050: 53a4 4b3b 4318 1d3c 0f4f e33c 18de d43c
00000060: ded6 483d 6aed d03c 22e1 4cbc 298e 743c
00000070: 730f 2ebb 0b01 da3c 0372 67b8 4451 ad3c
00000080: 5464 603c 677e c5bc fd59 1d3d 6691 053d
00000090: 6c01 abbb 0f56 153c 004e b83b 9d96 543d
000000a0: fe07 58bc 7a5a cf3c a8b8 5bbc 160a 9e3d
000000b0: fe6e 273d 2b41 f339 b190 f13c d048 0b3d
000000c0: 1df5 483d 75d0 8c3c d568 13bb 232e e63c
000000d0: cd1a b63c 7df8 1a3d 396f 393c 3c01 eb3c
000000e0: 4bf5 afbb 2318 66bc 08a6 1a3d 4161 913b
000000f0: 01fd afba 4de2 f63c ae14 4ebc 6989 4c3c

std.constant5 f4 [64, 64]
-0.11745582 -0.09181796 0.12999283 0.04404111 -0.12880109 -0.05409157 -0.12770885 -0.01630356
0.0496998 -0.046419702 -0.05055447 0.09965481 -0.08803181 -0.069446184 0.06076321 -0.029599369
-0.15269221 0.01721161 0.20794229 0.16587898 -0.08351926 -0.04399462 0.19665891 -0.03923374
-0.00014554197 0.10262176 -0.03138972 0.12246353 -0.059521887 -0.12092737 0.034519363 0.080413
0.11075273 0.06872148 0.16765843 -0.049875528 -0.14730242 0.00890663 -0.1709412 0.016409742
0.045735873 0.10356073 -0.07220396 0.053480376 0.0013577617 0.14909638 0.14579594 0.15022954
-0.08472802 0.06239946 0.016094824 -0.09035524 0.07831508 -0.03903492 -0.1779371 0.0036012984
-0.0117601445 -0.06721949 0.108232416 0.08092687 -0.07370362 0.11258444 -0.027294545 -0.106764965
-0.036932074 0.008621651 0.13734081 0.039181612 0.020424232 -0.027232135 -0.095891714 -0.16037649
-0.095900446 0.044428002 0.15562835 0.009692686 -0.062186647 -0.05785355 0.052966308 0.053134367
0.016023573 0.010325374 0.10675229 0.100290455 0.05194342 0.11665194 0.12039811 -0.009518408
-0.09613041 -0.012311112 -0.07777602 0.1021232 -0.13404459 -0.18234703 0.040287897 -0.0075375084
0.05679258 0.1134389 0.15108018 0.040134553 -0.14340243 0.08369823 -0.00809892 0.07089105
0.10408102 0.018905455 -0.017077053 0.098437294 -0.117266186 0.12951668 -0.07400208 -0.012961684
-0.110281974 0.060575254 -0.030330308 -0.05858434 0.13344511 -0.034983445 -0.17125607 -0.0017523853
-0.008647403 -0.12434036 0.0667918 0.18918125 -0.1164005 0.07290854 -0.061915316 0.07096549
-0.1290071 0.04050891 -0.11403605 -0.06664593 -0.01062895 -0.01653755 -0.113937795 -0.16059259
0.023895323 -0.0024885149 0.021856694 -0.07234941 -0.08141722 -0.11976796 -0.007730186 -0.023137324
-0.029279808 0.014147922 0.09498791 -0.10119732 0.055253737 -0.0073996624 0.04901747 -0.0589832
-0.014404822 0.0815169 -0.100266755 -0.059721224 -0.15555355 -0.06883309 -0.033502102 0.064624816
0.019049477 -0.006328181 0.0061233044 -0.0647999 -0.054877385 0.06786685 -0.086396135 0.10744754
0.13135272 0.022609737 0.0154518625 0.061484743 -0.090709634 0.044812962 -0.1621996 0.08133214
0.015638106 -0.039711233 0.013930272 -0.049094245 0.08081775 -0.09861643 0.12221291 0.0483422
-0.0026912808 -0.018159907 0.07583044 -0.0140423635 -0.15671626 0.0013515954 0.12536666 -0.043068014
0.109054044 -0.090316184 0.08760294 -0.15908173 -0.072915666 0.11181937 -0.12038112 -0.14626695
-0.15035547 -0.00015482947 0.030376414 0.018982045 -0.028301202 -0.04870301 -0.0007510052 -0.0081287045
0.02634494 -0.0107731605 -0.034178462 0.0627951 0.054222345 -0.047153804 -0.1861848 0.0050847963
-0.06682365 0.023789203 -0.031672552 0.065513596 -0.0945298 -0.054583874 0.15287545 0.13863786
0.054648135 0.0521367 0.0282046 -0.023898024 0.05655607 -0.04046856 -0.055248227 0.15684484
-0.0065713464 0.029873427 -0.09857302 -0.048618454 -0.03216659 -0.007475913 -0.07895619 0.057274792
-0.05096102 0.14611286 -0.07649343 -0.03342556 0.08584135 -0.18996042 0.042471576 -0.09679602
0.13861682 -0.07253537 0.11491247 0.031107659 -0.12645599 0.16694869 0.03157825 -0.10295526
00000000: ad8c f0bd 0e0b bcbd d71c 053e 7364 343d
00000010: 6fe4 03be 1f8f 5dbd 1cc6 02be 0b8f 85bc
00000020: 0492 4b3d 9622 3ebd 3412 4fbd d217 cc3d
00000030: 064a b4bd cd39 8ebd d8e2 783d 607a f2bc
00000040: 595b 1cbe 5dff 8c3c d3ee 543e 2edc 293e
00000050: 250c abbd b433 34bd f460 493e 8fb3 20bd
00000060: a09c 18b9 5b2b d23d 8292 00bd 29ce fa3d
00000070: 39cd 73bd c5a8 f7bd 2d64 0d3d 92af a43d
00000080: 54d2 e23d d9bd 8c3d a7ae 2b3e 484a 4cbd
00000090: 72d6 16be 1ded 113c 360b 2fbe b96d 863c
000000a0: 8a55 3b3d a617 d43d abdf 93bd 3d0e 5b3d
000000b0: ecf6 b13a b9ac 183e 884b 153e c6d5 193e
000000c0: e285 adbd 9396 7f3d 4bd9 833c 2b0c b9bd
000000d0: a863 a03d 15e3 1fbd 2535 36be c303 6c3b
000000e0: 9fad 40bc 5faa 89bd f5a8 dd3d fdbc a53d
000000f0: ecf1 96bd ac92 e63d cf98 dfbc 97a7 dabd
00000100: 1646 17bd d341 0d3c 12a3 0c3e e67c 203d
00000110: b850 a73c ed15 dfbc e062 c4bd bc39 24be
00000120: 7467 c4bd 23fa 353d 0a5d 1f3e 12ce 1e3c
00000130: 6db7 7ebd d8f7 6cbd 33f3 583d 6ca3 593d
00000140: de43 833c c22b 293c f2a0 da3d 1565 cd3d
00000150: a0c2 543d 36e7 ee3d 4993 f63d 19f3 1bbc
00000160: 05e0 c4bd 8cb4 49bc 0949 9fbd f825 d13d
00000170: fc42 09be 2eb9 3abe ec04 253d 34fd f6bb
00000180: 569f 683d a752 e83d c3b4 1a3e 2164 243d
00000190: 16d8 12be fa69 ab3d 55b1 04bc 542f 913d
000001a0: 6e28 d53d 9ddf 9a3c 2de5 8bbc 7e99 c93d
000001b0: 4129 f0bd 05a0 043e 678e 97bd 3e5d 54bc
000001c0: 84db e1bd c21d 783d 4477 f8bc 22f6 6fbd
000001d0: d6a5 083e cd4a 0fbd c05d 2fbe 4bb0 e5ba
000001e0: d6ad 0dbc 29a6 febd 24ca 883d bbb8 413e
000001f0: 6363 eebd 1351 953d ea9a 7dbd 5b56 913d
00000200: 701a 04be acec 253d bc8b e9bd a97d 88bd
00000210: 0c25 2ebc c279 87bc 3858 e9bd 6272 24be
00000220: 20c0 c33c 5a16 23bb cf0c b33c ed2b 94bd
00000230: 12be a6bd e748 f5bd 804d fdbb 7c8a bdbc
00000240: 35dc efbc b0cc 673c 0589 c23d 8a40 cfbd
00000250: be51 623d de78 f2bb 8bc6 483d 5e98 71bd
00000260: 3402 6cbc 55f2 a63d a858 cdbd 3e9e 74bd
00000270: 6e49 1fbe 5df8 8cbd 8039 09bd 045a 843d
00000280: a60d 9c3c a15c cfbb 00a6 c83b cfb5 84bd
00000290: 1cc7 60bd c6fd 8a3d 75f0 b0bd 750d dc3d
000002a0: 5481 063e 0e38 b93c cf29 7d3c 6dd7 7b3d
000002b0: f9c5 b9bd cc8d 373d a717 26be 7791 a63d
000002c0: 7c1b 803c 3fa8 22bd cc3b 643c 0c17 49bd
000002d0: c783 a53d 69f7 c9bd c34a fa3d 7902 463d
000002e0: 3360 30bb 16c4 94bc fd4c 9b3d f111 66bc
000002f0: 3a7a 20be 0428 b13a 1e60 003e 1668 30bd
00000300: ba57 df3d b1f7 b8bd 2c69 b33d 52e6 22be
00000310: cf54 95bd 8e01 e53d 608a f6bd 01c7 15be
00000320: c9f6 19be b859 22b9 f5d7 f83c 3c80 9b3c
00000330: ecd7 e7bc cf7c 47bd 1bdf 44ba 422e 05bc
00000340: 58d1 d73c e981 30bc b7fe 0bbd b89a 803d
00000350: 4018 5e3d 5924 41bd 3aa7 3ebe 5d9e a63b
00000360: d6da 88bd 93e1 c23c 14bb 01bd fe2b 863d
00000370: d798 c1bd 5793 5fbd 628b 1c3e 15f7 0d3e
00000380: b9d6 5f3d 4b8d 553d 550d e73c cac5 c3bc
00000390: 56a7 673d 5cc2 25bd f74b 62bd ef9b 203e
000003a0: 7354 d7bb 1eb9 f43c a7e0 c9bd 2524 47bd
000003b0: 1dc1 03bd 81f8 f4bb c8b3 a1bd f998 6a3d
000003c0: 81bc 50bd 9c9e 153e 96a8 9cbd 3de9 08bd
000003d0: 97cd af3d fc84 42be adf6 2d3d fe3c c6bd
000003e0: 91f1 0d3e 6d8d 94bd 3b57 eb3d 7dd5 fe3c
000003f0: ae7d 01be 99f4 2a3e 3258 013d 35da d2bd

std.constant6 f4 [64, 64]
0.002145127 0.01596067 -0.09221491 -0.05986585 0.026928753 -0.076778404 0.017716287 0.06415355
-0.057435576 -0.06655994 0.039057273 -0.11281869 0.03314965 0.014332393 0.030236792 -0.020782284
0.0331901 0.021721357 -0.07333568 -0.10899724 0.12883775 0.18501686 0.14987203 0.034597617
0.1032308 -0.1320952 0.10815914 -0.12533656 -0.030545127 -0.086081766 -0.00091577054 -0.045122914
-0.12925476 -0.09471349 -0.005707995 -0.103629276 -0.15656035 0.10632165 0.099443756 -0.14237873
0.008880492 -0.11256034 0.13313606 -0.071786895 0.16742948 -0.08550783 0.11971697 0.027295973
-0.0028941755 -0.20368168 0.05781837 0.07955405 -0.14261542 -0.08638766 0.007913375 0.052792408
0.05671921 0.044898026 -0.11128488 -0.048544638 0.056495793 -0.13024636 0.0045249257 0.05136115
-0.11263536 -0.024735685 0.0034798628 -0.027062148 -0.15026493 0.12824477 0.079462275 -0.12823205
0.0521305 -0.02503074 0.069541715 -0.038963087 0.07940413 0.03503395 -0.052771527 -0.0011221699
0.054535944 0.02338849 -0.123025276 -0.02160197 -0.013394108 0.077457644 -0.14277141 0.042407736
-0.046038706 -0.12503777 0.09875588 0.013068732 -0.13088842 -0.004301284 -0.082560904 -0.071247675
0.030425338 0.0002237256 0.008925507 -0.055047303 0.046037618 0.053725243 -0.10634344 -0.1286759
-0.08437449 -0.040075123 -0.053470235 -0.11538067 0.0043170266 0.07445567 -0.019617042 -0.09102867
0.029846635 0.013213227 0.087659016 0.03482906 0.010946138 0.047840822 -0.05347642 -0.023625566
0.022729881 0.00015701698 -0.05132041 0.0056779156 0.0328357 0.011720931 -0.1581827 -0.025182027
0.0018233601 0.13813545 -0.095816 -0.015402037 0.00018995258 -0.0042784475 0.06776213 0.18802941
-0.0031397175 -0.064526156 0.09354749 -0.025454253 -0.016133282 -0.090482265 -0.009775817 0.007545677
0.072694145 -0.08414444 0.0030396073 0.03927326 0.014166842 -0.06873956 -0.006634257 0.034669157
0.09882422 -0.09542175 0.036252707 0.06480653 -0.09679993 0.17916048 -0.12968037 -0.012664742
-0.05775514 0.0070635783 -0.018824276 -0.1395101 -0.017887656 0.09347491 0.03425793 -0.0059662047
0.004784336 -0.07696066 0.056217313 0.015578791 0.22989225 -0.11141711 0.12700507 -0.023731865
0.112155244 -0.0017954297 0.02751614 0.017904202 -0.026089998 0.026576515 0.2061724 0.053008895
-0.108068 0.058963515 0.04396949 -0.030156603 0.061150603 0.03492435 0.04985931 0.056756236
-0.053358693 0.032358397 -0.05288801 0.13527389 0.02331463 0.02950502 -0.03100962 -0.036474787
0.064004794 0.0063623516 0.017639546 -0.011131779 0.14455983 0.015349222 0.049627848 -0.095381625
0.0741636 -0.028525347 -0.074191056 -0.068702176 -0.007843079 0.21401356 0.21264306 0.04329118
0.17064448 0.062822685 0.030965187 -0.06894164 -0.09656989 -0.02371721 -0.13619497 -0.025365686
-0.019026924 -0.017546678 0.05366283 -0.023857726 -0.03893897 -0.05129789 0.011933492 0.0031716302
-0.029511029 0.021701729 -0.021105044 -0.02401781 -0.025694616 -0.07931963 -0.041689653 -0.10570315
0.04727855 0.09801763 0.0014479774 0.036320888 -0.13228253 0.1398749 0.030395191 -0.019534826
-0.093005024 -0.05436225 -0.077890895 0.059182275 -0.093567654 -0.016916214 -0.0018326457 0.14868608
00000000: 4295 0c3b f3bf 823c 2cdb bcbd e535 75bd
00000010: b099 dc3c ff3d 9dbd bf21 913c f062 833d
00000020: 9141 6bbd 9450 88bd 85fa 1f3d 7c0d e7bd
00000030: edc7 073d 6ad2 6a3c 26b3 f73c 9c3f aabc
00000040: 58f2 073d fdf0 b13c 0431 96bd f239 dfbd
00000050: 0bee 033e 0f75 3d3e 0e78 193e 3bb6 0d3d
00000060: ab6a d33d f743 07be 8a82 dd3d 3a58 00be
00000070: c639 fabc a34b b0bd 5210 70ba ced2 38bd
00000080: 5c5b 04be 25f9 c1bd 220a bbbb 963b d4bd
00000090: 5b51 20be 2abf d93d 2ba9 cb3d bbcb 11be
000000a0: 7c7f 113c 0986 e6bd d254 083e 0205 93bd
000000b0: a272 2b3e bb1e afbd 2c2e f53d ce9b df3c
000000c0: 35ac 3dbb ee91 50be f5d2 6c3d 3ced a23d
000000d0: c709 12be 03ec b0bd 1aa7 013c da3c 583d
000000e0: 6752 683d fee6 373d 54e9 e3bd bed6 46bd
000000f0: 2268 673d 4d5f 05be d445 943b 1260 523d
00000100: 5ead e6bd 7ea2 cabc 690e 643b 70b1 ddbc
00000110: 0ddf 19be 9952 033e 1ebd a23d 434f 03be
00000120: cb86 553d 440d cdbc e36b 8e3d c297 1fbd
00000130: a29e a23d c27f 0f3d f526 58bd c615 93ba
00000140: 1561 5f3d 3899 bf3c adf4 fbbd 9df6 b0bc
00000150: f672 5bbc 1da2 9e3d ab32 12be bcb3 2d3d
00000160: 1593 3cbd e709 00be 8640 ca3d 3c1e 563c
00000170: 9d07 06be c9f1 8cbb b115 a9bd 4dea 91bd
00000180: 8f3e f93c e297 6a39 4a3c 123c 4879 61bd
00000190: f191 3c3d 000f 5c3d 97ca d9bd 9dc3 03be
000001a0: 88cc acbd d025 24bd 9b03 5bbd b34c ecbd
000001b0: d875 8d3b 377c 983d ebb3 a0bc 3d6d babd
000001c0: ee80 f43c 4a7c 583c 9286 b33d eba8 0e3d
000001d0: 6e57 333c bdf4 433d 170a 5bbd 678a c1bc
000001e0: 0434 ba3c eda4 2439 5a35 52bd cf0d ba3b
000001f0: ba7e 063d 2609 403c a5fa 21be 8a4a cebc
00000200: d0fd ee3a 6173 0d3e 2e3b c4bd d358 7cbc
00000210: 022e 4739 3832 8cbb dfc6 8a3d c88a 403e
00000220: b8c3 4dbb 4a26 84bd d495 bf3d 7085 d0bc
00000230: f229 84bc c44e b9bd c02a 20bc ba41 f73b
00000240: abe0 943d ec53 acbd 2634 473b ffdc 203d
00000250: 0b1c 683c 54c7 8cbd 2e64 d9bb 3f01 0e3d
00000260: 5a64 ca3d 7a6c c3bd b87d 143d 49b9 843d
00000270: 0b3f c6bd d875 373e eeca 04be c77f 4fbc
00000280: a790 6cbd 9775 e73b 5e35 9abc bcdb 0ebe
00000290: 2289 92bc c66f bf3d 0b52 0c3d 2780 c3bb
000002a0: ebc5 9c3b 8d9d 9dbd 2044 663d 2f3e 7f3c
000002b0: e068 6b3e a72e e4bd 9e0d 023e 5469 c2bc
000002c0: a6b1 e53d a054 ebba 8769 e13c d5ab 923c
000002d0: b1ba d5bc feb6 d93c dc1e 533e db1f 593d
000002e0: c152 ddbd ba83 713d 5a19 343d fb0a f7bc
000002f0: 0e79 7a3d d60c 0f3d 4739 4c3d 3a79 683d
00000300: a58e 5abd 3d8a 043d 19a1 58bd 3d85 0a3e
00000310: 53fe be3c 83b4 f13c e307 febc 9666 15bd
00000320: f214 833d 467b d03b cf80 903c 1162 36bc
00000330: 7e07 143e 4e7b 7b3c 9246 4b3d 7157 c3bd
00000340: 16e3 973d fdad e9bc 7bf1 97bd bab3 8cbd
00000350: 4280 00bc 5f26 5b3e 1abf 593e 1852 313d
00000360: 6dbd 2e3e 2ea9 803d b4aa fd3c 4631 8dbd
00000370: 6fc6 c5bd 984a c2bc b276 0bbe b3cb cfbc
00000380: 5ade 9bbc 0dbe 8fbc 8ecd 5b3d 4771 c3bc
00000390: 787e 1fbd bc1d 52bd b184 433c 20db 4f3b
000003a0: 1dc1 f1bc d3c7 b13c 7ce4 acbc 00c1 c4bc
000003b0: 847d d2bc 5572 a2bd c5c2 2abd e57a d8bd
000003c0: 27a7 413d 78bd c83d 0fca bd3a 36c5 143d
000003d0: 1275 07be 5e3b 0f3e 56ff f83c 8007 a0bc
000003e0: 6b79 bebd f3aa 5ebd 4385 9fbd 1d69 723d
000003f0: 66a0 bfbd df93 8abc 6335 f0ba 2a41 183e

std.constant7 f4 [64, 64]
-0.14323243 -0.075522445 0.02325982 0.1105391 0.01274585 -0.28958407 0.030219577 0.056370877
0.08575508 0.019476404 0.014051376 -0.04069639 -0.08071375 -0.08163985 0.0073341327 0.03079269
-0.031462785 0.06255265 -0.0296026 -0.00046987436 -0.03929243 -0.03395182 -0.07359605 -0.032716934
0.16653255 -0.0803796 -0.012119951 0.079917334 0.017558163 -0.0649643 0.054756206 -0.011763968
0.045779448 0.021811727 0.058133952 0.09756904 0.17707026 0.02622382 0.0011118717 -0.11729234
-0.05179238 -0.021373758 0.07827499 0.0011332083 0.000840038 0.026226847 -0.046167456 0.04857957
-0.05795203 0.05991427 0.048083797 0.0013697764 -0.05647705 0.10027817 -0.036428943 0.061580952
0.06411013 -0.004991168 -0.02952227 -0.043561846 0.11072522 0.03978662 -0.108968385 0.046139468
0.13735901 -0.00048714405 -0.04194905 0.06285589 -0.06313426 0.10816733 -0.06035598 -0.03539985
0.04181717 0.048654433 -0.0636027 -0.03010823 0.023330685 -0.009185424 0.04098337 0.041520145
0.024324194 0.043242045 -0.05845344 0.017861847 -0.02358599 -0.037981186 0.013059771 0.053032637
-0.011617949 0.13389325 0.0605348 -0.0021874541 0.08055995 0.06866759 -0.066212334 0.050706685
-0.12830392 -0.018342592 0.042810712 -0.064836256 0.010879011 0.0033135423 0.027498392 0.048442885
0.0094244415 -0.0016400268 0.032670822 0.024038257 0.01811296 0.0130127445 0.10444508 -0.018025689
-0.07007111 -0.078969955 -0.024060665 -0.067878686 0.03695821 -0.11460485 0.1252328 0.058661804
0.03750677 0.017672423 -0.10122481 0.050497286 0.07131689 0.06222765 0.03348998 -0.012304274
-0.04172113 0.1577425 -0.116323985 -0.037099652 0.0024507935 -0.2331862 -0.03997398 0.051571533
0.06384128 0.03270415 -0.020842068 0.053419113 0.085020564 0.013571122 -0.087054804 0.003086584
-0.03609597 0.04531518 0.033525437 -0.02256937 0.03903669 -0.08510234 -0.13302898 0.03931857
0.040010862 -0.09484902 -0.10480158 -0.018222831 -0.22721918 0.022811584 0.0031202822 0.0085350815
0.06707794 -0.04524414 -0.12125709 -0.062178783 0.1039069 0.068598494 -0.08476347 -0.06410155
-0.02285179 -0.057698835 -0.04357385 -0.0028606951 0.034767635 -0.08774801 -0.07654287 0.026239367
-0.04786275 0.038517922 -0.038058896 -0.064479545 0.053534713 0.03983776 0.013867764 0.08148053
0.04886238 -0.062524036 -0.00075457187 -0.010691385 0.079925604 0.06483196 -0.09027369 -0.09694103
-0.013321952 -0.0148034645 0.05945994 -0.021920493 -0.08239202 0.023789296 0.12639773 0.04134985
0.13252802 0.05955043 -0.04398815 0.02818789 0.1229668 0.02639473 -0.056148205 0.05928047
0.04496961 -0.005187733 -0.023341369 0.09431644 -0.021245034 -0.053009283 0.014154677 -0.10530192
0.049271367 0.0450442 -0.04228402 -0.040111713 -0.03668677 -0.05545142 -0.05900199 0.043207113
0.15196167 0.004656011 0.13218543 -0.13207503 -0.09109546 -0.010413548 -0.006810608 0.083071634
-0.025724625 -0.046007533 -0.032193534 0.08196095 0.049904354 0.028943554 -0.0014522151 -0.030860348
-0.13716502 0.006892866 0.05983697 -0.054100793 -0.038766626 -0.086774796 0.05847164 0.104979604
-0.035007622 -0.03336932 -0.024691464 0.06074767 0.010144982 -0.036504164 0.16097374 0.03570084
00000000: 86ab 12be 83ab 9abd 618b be3c 5362 e23d
00000010: f8d3 503c 5d44 94be 0c8f f73c 26e5 663d
00000020: 5ca0 af3d fb8c 9f3c be37 663c 42b1 26bd
00000030: 404d a5bd cb32 a7bd 2a53 f03b f440 fc3c
00000040: 1fdf 00bd 9b1b 803d 2781 f2bc 7859 f6b9
00000050: 19f1 20bd 1011 0bbd 87b9 96bd 3102 06bd
00000060: 8287 2a3e 0f9e a4bd c292 46bc b3ab a33d
00000070: 23d6 8f3c 010c 85bd 0b48 603d a8bd 40bc
00000080: 3b83 3b3d 82ae b23c de1d 6e3d 47d2 c73d
00000090: e851 353e 56d3 d63c 39bc 913a f736 f0bd
000000a0: 3f24 54bd 0518 afbc a34e a03d 2988 943a
000000b0: ff35 5c3a afd9 d63c 161a 3dbd 5ffb 463d
000000c0: 1c5f 6dbd aa68 753d 84f3 443d 128a b33a
000000d0: 7b54 67bd a45e cd3d 8436 15bd 4f3c 7c3d
000000e0: 2c4c 833d f48c a3bb b0d8 f1bc e86d 32bd
000000f0: e7c3 e23d 4bf7 223d d12a dfbd bdfc 3c3d
00000100: d7a7 0c3e 5e67 ffb9 c4d2 2bbd 97ba 803d
00000110: 894c 81bd d586 dd3d d537 77bd 6fff 10bd
00000120: 7b48 2b3d df49 473d 2242 82bd 89a5 f6bc
00000130: fe1f bf3c 767e 16bc 2ede 273d 0711 2a3d
00000140: 8843 c73c 921e 313d e06c 6fbd 0253 923c
00000150: 6837 c1bc 2992 1bbd a6f8 553c c038 593d
00000160: 3659 3ebc 501b 093e 57f3 773d 645b 0fbb
00000170: 9dfc a43d 98a1 8c3d 559a 87bd d0b1 4f3d
00000180: 1a62 03be 3443 96bc 495a 2f3d dfc8 84bd
00000190: e13d 323c 0428 593b 4f44 e13c 0c6c 463d
000001a0: f968 1a3c 2bf6 d6ba d7d1 053d e1eb c43c
000001b0: a161 943c 6833 553c 4de7 d53d 9caa 93bc
000001c0: 7181 8fbd 00bb a1bd df1a c5bc fb03 8bbd
000001d0: 7e61 173d f3b5 eabd 073d 003e 5c47 703d
000001e0: b3a0 193d c2c5 903c f44e cfbd 3ed6 4e3d
000001f0: 970e 923d 6ce2 7e3d ca2c 093d de97 49bc
00000200: c7e3 2abd 4087 213e 453b eebd cef5 17bd
00000210: 7e9d 203b 5dc8 6ebe c2bb 23bd ac3c 533d
00000220: 38bf 823d c9f4 053d fcbc aabc 00ce 5a3d
00000230: 431f ae3d 6959 5e3c ca49 b2bd 4948 4a3b
00000240: 5ed9 13bd 699c 393d f851 093d 66e3 b8bc
00000250: f0e4 1f3d 234a aebd c038 08be 820c 213d
00000260: 6ee2 233d 3440 c2bd 36a2 d6bd 0c48 95bc
00000270: 25ac 68be 5cdf ba3c a67d 4c3b bad6 0b3c
00000280: 2960 893d eb51 39bd a355 f8bd 2eaf 7ebd
00000290: 24cd d43d 5e7d 8c3d 7898 adbd ac47 83bd
000002a0: ad33 bbbc 9d55 6cbd 7e7a 32bd 807a 3bbb
000002b0: 8268 0e3d 3bb5 b3bd 82c2 9cbd f1f3 d63c
000002c0: bb0b 44bd f8c4 1d3d a5e3 1bbd da0d 84bd
000002d0: 3747 5b3d eb2c 233d 9e35 633c 44df a63d
000002e0: eb23 483d 9a0c 80bd 76ce 45ba eb2a 2fbc
000002f0: 09b0 a33d 9ec6 843d 6ae1 b8bd 0589 c6bd
00000300: 5144 5abc 3b8a 72bc 448c 733d 9b92 b3bc
00000310: 26bd a8bd c5e1 c23c 686e 013e 765e 293d
00000320: 6db5 073e 27eb 733d eb2c 34bd 4aea e63c
00000330: 05d6 fb3d c339 d83c a9fb 65bd 14d0 723d
00000340: 0e32 383d dcfd a9bb 6636 bfbc fa28 c13d
00000350: 110a aebc 4320 59bd 05e9 673c 88a8 d7bd
00000360: c6d0 493d 4480 383d 0232 2dbd 2e4c 24bd
00000370: de44 16bd 0721 63bd 12ac 71bd f1f9 303d
00000380: d79b 1b3e 7391 983b 9e5b 073e ad3e 07be
00000390: 4290 babd 969d 2abc 852b dfbb 7621 aa3d
000003a0: 73bc d2bc 6572 3cbd 5edd 03bd 24db a73d
000003b0: 8268 4c3d 081b ed3c 4158 beba d7ce fcbc
000003c0: fd74 0cbe 8ddd e13b 9c17 753d cb98 5dbd
000003d0: c1c9 1ebd fcb6 b1bd f57f 6f3d 8cff d63d
000003e0: 2764 0fbd 45ae 08bd c145 cabc 8cd2 783d
000003f0: 2337 263c 6485 15bd 4dd6 243e 0b3b 123d

std.constant8 f4 [64, 64]
-0.009239802 -0.05796095 0.10040648 0.06651611 -0.1037644 -0.009219441 -0.09671375 -0.022008587
0.15784255 0.047771744 0.03378259 0.07557756 -0.25016785 -0.01214666 -0.08647388 0.0852605
-0.09784387 -0.12234743 0.08297443 0.043994345 0.02791233 -0.12974335 0.21523517 0.018587137
-0.09724589 0.20136073 -0.066870205 0.15126798 -0.12181938 0.02882242 0.063973576 0.0735849
-0.0037979952 -0.04555858 0.0407615 -0.08014747 -0.18132652 0.06199444 -0.07110879 -0.026046412
0.07115818 0.097084075 0.03416348 0.13326329 -0.0073234527 0.090849586 0.15214601 0.043793604
-0.021177001 0.12399483 -0.10176887 0.01250377 0.03157044 -0.03673879 0.064228885 0.055915974
-0.036586624 -0.086951666 0.07856442 0.080043964 -0.029686388 0.07640213 -0.17105417 -0.01110369
-0.113515235 -0.14696035 0.08212038 0.09640413 0.0015140534 0.1003166 -0.12455849 -0.20617215
-0.057011448 0.05689701 -0.11695814 0.12913546 0.026162513 -0.08372012 -0.06057682 0.1465704
0.02818235 0.11731029 0.099472985 0.028472174 -0.08405141 0.12594573 -0.028183158 0.07854051
-0.02232776 -0.016138336 0.0063150683 0.05000454 -0.024280846 -0.07317705 0.070023455 -0.0987758
0.09469765 0.029520664 0.025434472 0.00946505 0.08332483 0.040461387 -0.02326004 -0.08150294
0.08543392 0.046102744 -0.00084593066 0.072884604 -0.019158294 0.067979306 0.059432864 0.025574995
-0.070397645 0.09328167 -0.0963298 0.05389594 -0.011344418 0.06509536 -0.060068615 0.009365524
0.08222793 0.059436526 0.08532813 -0.01243888 -0.10900118 0.096369214 -0.17539172 0.06588074
-0.32360688 0.13041265 -0.24059297 -0.023090897 0.04640152 -0.2845592 -0.054579176 0.018182807
-0.15875241 0.057743497 0.016358536 0.043599196 0.03433114 -0.09966036 -0.17213431 -0.22124386
-0.096777 -0.05751791 0.068257265 0.015161634 0.008558616 0.029662842 -0.08461539 -0.022905443
0.039946787 -0.044999722 -0.02233553 -0.07568153 -0.051764168 -0.008426638 0.065828405 0.026928503
-0.0034931223 -0.030416543 0.016559554 -0.115195185 0.07203869 0.19257651 0.043529708 -0.040368702
-0.048673734 -0.014586392 0.03659258 0.05677952 -0.11645228 0.03159689 0.14150728 0.053917583
0.008005437 -0.01929676 0.04348139 0.03258169 -0.01266822 -0.025139218 0.071415335 0.08461488
-0.2533561 0.13554811 -0.19123958 0.12241233 0.038240295 -0.07091546 0.25425506 -0.04511209
-0.02730376 0.04939241 -0.18474507 -0.0950047 -0.035013676 0.16114363 -0.04449036 -0.026030477
-0.061294388 0.016880387 0.16793042 -0.0017509564 0.034037054 0.023730457 -0.0021591543 0.017293584
-0.022542326 0.13328086 0.018934527 0.049256165 -0.0027153005 -0.23944932 -0.07856343 -0.12646809
-0.1322657 -0.06620702 0.05077426 0.051473122 -0.10440104 -0.09676708 0.13995826 -0.00026242636
-0.06983282 0.030668702 -0.06339998 0.01355599 0.048705876 0.15512258 -0.03547673 0.09889106
0.06013999 0.055891104 -0.013378275 -0.03983538 0.03582452 0.14809015 0.054916143 0.009706934
-0.09000257 0.06703537 -0.030589933 0.019018287 -0.02087388 0.12628078 0.13536867 0.03217704
0.10588032 -0.018542482 -0.010556333 -0.0070834393 -0.052778527 0.006908939 0.11510036 -0.030063398
00000000: 8a62 17bc 7668 6dbd eaa1 cd3d 9939 883d
00000010: 6e82 d4bd 230d 17bc dc11 c6bd 5a4b b4bc
00000020: 7aa1 213e 4eac 433d 9d5f 0a3d 68c8 9a3d
00000030: 0016 80be c902 47bc 3819 b1bd 0f9d ae3d
00000040: 5e62 c8bd 4a91 fabd 7fee a93d 6a33 343d
00000050: 66a8 e43c 71db 04be 9c66 5c3e 0d44 983c
00000060: da28 c7bd 8231 4e3e 3ff3 88bd fee5 1a3e
00000070: 707c f9bd ff1c ec3c 9404 833d aeb3 963d
00000080: c9e7 78bb a29b 3abd 88f5 263d 5b24 a4bd
00000090: a9ad 39be e2ed 7d3d 7ca1 91bd 495f d5bc
000000a0: 61bb 913d 04d4 c63d 01ef 0b3d 2c76 083e
000000b0: 93f9 efbb 590f ba3d 2acc 1b3e ec60 333d
000000c0: 647b adbc 00f1 fd3d 336c d0bd 9ddc 4c3c
000000d0: 0150 013d 6a7b 16bd 6f8a 833d 2608 653d
000000e0: dbdb 15bd b713 b2bd 62e6 a03d 17ee a33d
000000f0: de30 f3bc b878 9c3d d328 2fbe 40ec 35bc
00000100: ad7a e8bd c67c 16be bb2e a83d 876f c53d
00000110: 3473 c63a ca72 cd3d 8618 ffbd cb1e 53be
00000120: d684 69bd d70c 693d c087 efbd 163c 043e
00000130: c452 d63c 7475 abbd 661f 78bd 8d16 163e
00000140: acde e63c 6140 f03d 7eb8 cb3d 7a3e e93c
00000150: 2523 acbd ebf7 003e 5ee0 e6bc d9d9 a03d
00000160: b5e8 b6bc 8b34 84bc a2ee ce3b 8fd1 4c3d
00000170: a0e8 c6bc d9dd 95bd 7568 8f3d f74a cabd
00000180: d7f0 c13d 52d5 f13c f45b d03c 4c13 1b3c
00000190: 35a6 aa3d d7ba 253d d78b bebc 03eb a6bd
000001a0: fbf7 ae3d 3bd6 3c3d 72c1 5dba 8644 953d
000001b0: dbf1 9cbc bc38 8b3d e06f 733d a782 d13c
000001c0: a42c 90bd 760a bf3d 8f48 c5bd fdc1 5c3d
000001d0: f0dd 39bc b750 853d 820a 76bd db71 193c
000001e0: 1e67 a83d b773 733d 84c0 ae3d 72cc 4bbc
000001f0: 033c dfbd 395d c53d e399 33be 7bec 863d
00000200: cdaf a5be e58a 053e 015e 76be 1f29 bdbc
00000210: 850f 3e3d beb1 91be 6a8e 5fbd 1cf4 943c
00000220: fe8f 22be 7284 6c3d 5602 863c 1295 323d
00000230: cf9e 0c3d bb1a ccbd fa43 30be c08d 62be
00000240: 0533 c6bd e697 6bbd 77ca 8b3d 8168 783c
00000250: 7039 0c3c 7dff f23c d54a adbd 32a4 bbbc
00000260: 3e9f 233d a151 38bd 00f9 b6bc ebfe 9abd
00000270: aa06 54bd e20f 0abc 0bd1 863d 2a99 dc3c
00000280: deec 64bb 1d2c f9bc e7a7 873c 74eb ebbd
00000290: 0589 933d c732 453e 354c 323d a759 25bd
000002a0: 1c5e 47bd c3fb 6ebc 1ae2 153d a491 683d
000002b0: 887e eebd be6b 013d 49e7 103e afd8 5c3d
000002c0: 3d29 033c 3d14 9ebc 8b19 323d 6174 053d
000002d0: 5e8e 4fbc c3f0 cdbc 3442 923d 914a ad3d
000002e0: e4b7 81be 20cd 0a3e 4fd4 43be 51b3 fa3d
000002f0: dba1 1c3d 203c 91bd b82d 823e 74c7 38bd
00000300: 23ac dfbc b24f 4a3d d02d 3dbe d391 c2bd
00000310: 806a 0fbd d602 253e 863b 36bd de3d d5bc
00000320: d30f 7bbd bd48 8a3c f4f5 2b3e 5980 e5ba
00000330: 706a 0b3d 6066 c23c 9980 0dbb 46ab 8d3c
00000340: afaa b8bc c77a 083e 951c 9b3c d5c0 493d
00000350: 2ff3 31bb 3432 75be dde5 a0bd da80 01be
00000360: a970 07be 8c97 87bd acf8 4f3d 7bd5 523d
00000370: 36d0 d5bd d22d c6bd 3851 0f3e 4596 89b9
00000380: 8204 8fbd ee3c fb3c d9d7 81bd f119 5e3c
00000390: d07f 473d 74d8 1e3e 0c50 11bd 6587 ca3d
000003a0: 5a55 763d 12ee 643d 8d30 5bbc 6c2a 23bd
000003b0: bbbc 123d f2a4 173e c0ef 603d d509 1f3c
000003c0: 4453 b8bd d749 893d bd97 fabc 3dcc 9b3c
000003d0: b3ff aabc c04f 013e 169e 0a3e 12cc 033d
000003e0: c8d7 d83d 67e6 97bc 78f4 2cbc 321c e8bb
000003f0: 4c2e 58bd 6264 e23b bdb9 eb3d 8447 f6bc

std.constant9 f4 [64]
0.049196925 0.061746243 0.021851594 0.011477218 0.26292628 0.16957611 0.038034134 0.046299577
0.12531117 0.4249862 0.17043428 0.038011745 0.10725738 0.46128428 0.09178457 0.3317323
0.15114619 0.037752777 0.07375122 0.12609777 0.04929388 0.11595321 0.08771933 0.020667296
0.013580113 0.082759924 0.37893364 0.34491506 0.04804913 0.04448024 0.46730262 0.09986974
0.37046987 0.12346368 0.04575752 0.029491074 0.018914912 0.0528312 0.3230635 0.13478938
0.5276406 0.41451576 0.054627165 0.38010097 0.06607576 0.20604976 0.20068072 0.023499023
0.080622844 0.56127745 0.056922246 0.31998596 0.022813175 0.083748065 0.12905474 0.052681763
0.093675114 0.06801304 0.2607282 0.016423864 0.47553575 0.22017656 0.11893316 0.019728573
00000000: b782 493d a1e9 7c3d 1d02 b33c f10a 3c3c
00000010: 469e 863e 5ca5 2d3e aec9 1b3d a0a4 3d3d
00000020: 9251 003e cb97 d93e 5386 2e3e 34b2 1b3d
00000030: c2a9 db3d 742d ec3e 8cf9 bb3d d1d8 a93e
00000040: 11c6 1a3e a8a2 1a3d e10a 973d c61f 013e
00000050: 61e8 493d e078 ed3d 31a6 b33d 764e a93c
00000060: 1f7f 5e3c 097e a93d 9703 c23e b598 b03e
00000070: 2acf 443d ea30 363d 4a42 ef3e 8288 cc3d
00000080: 3aae bd3e 87da fc3d 3d6c 3b3d 4497 f13c
00000090: 72f3 9a3c 8765 583d 9468 a53e 3a06 0a3e
000000a0: 7413 073f 693b d43e bcc0 5f3d 989c c23e
000000b0: ba52 873d b5fe 523e 3f7f 4d3e 0681 c03c
000000c0: 971d a53d e1af 0f3f 4d27 693d 33d5 a33e
000000d0: b2e2 ba3c 1b84 ab3d ed26 043e d5c8 573d
000000e0: bdd8 bf3d 6c4a 8b3d 2b7e 853e 578b 863c
000000f0: 6c79 f33e f775 613e 3b93 f33d d19d a13c

std.constant10 f4 [64]
0.93939716 0.9894738 0.9408077 0.97502345 1.1559134 0.9607193 0.9931429 0.9809311
0.9324625 1.1831219 1.0236293 0.97952837 1.0205847 1.03249 0.9780021 0.9909926
0.9599572 0.9660995 0.9842618 0.9945075 0.99088556 0.94929636 0.90273064 0.9855352
0.98521554 0.9807045 1.1251465 1.1426811 0.9758761 0.96213573 1.1028324 1.0519818
1.030911 1.033824 0.96859187 0.9665065 0.9312392 0.9965749 0.96339947 0.9806864
0.934772 1.152541 0.9676522 1.0575945 0.9817817 1.02935 0.9916718 1.0091583
1.030615 1.0845506 1.0192819 1.0964411 1.0058601 0.9728846 0.9616347 0.98714334
0.9413679 1.0033168 1.0302708 0.9891974 1.0107727 0.9922151 0.9813444 0.99272984
00000000: 557c 703f 284e 7d3f c6d8 703f 239b 793f
00000010: f8f4 933f b3f1 753f 9d3e 7e3f 4d1e 7b3f
00000020: ddb5 6e3f 8a70 973f 4906 833f 5fc2 7a3f
00000030: 85a2 823f a228 843f 585e 7a3f b1b1 7d3f
00000040: c1bf 753f 4c52 773f 95f8 7b3f 0b98 7e3f
00000050: adaa 7d3f 1605 733f 5b19 673f 094c 7c3f
00000060: 1637 7c3f 730f 7b3f cd04 903f 6043 923f
00000070: 04d3 793f 874e 763f 9d29 8d3f 57a7 863f
00000080: e4f4 833f 5854 843f a3f5 773f f86c 773f
00000090: b165 6e3f 881f 7f3f 59a1 763f 440e 7b3f
000000a0: 384d 6f3f 7786 933f 0eb8 773f 425f 873f
000000b0: 0c56 7b3f bec1 833f 34de 7d3f 192c 813f
000000c0: 31eb 833f 8ed2 8a3f d477 823f 2f58 8c3f
000000d0: 06c0 803f f70e 793f b12d 763f 6db5 7c3f
000000e0: 7dfd 703f af6c 803f eadf 833f 0a3c 7d3f
000000f0: 0061 813f cf01 7e3f 6339 7b3f 8b23 7e3f

std.constant11 f4 [64]
0.003445236 -0.022101153 -0.009047392 0.0027249341 -0.19761775 0.010356667 0.0068454174 -0.023005404
0.009356528 0.3107496 0.22233751 0.013891584 -0.022923721 -0.15975654 0.0053145546 0.082085304
-0.10774041 0.0015856528 -0.012021041 0.08931793 -0.006188754 -0.009386031 0.0011295148 -0.018905055
-0.040579118 -0.012589518 -0.30469972 0.2567367 -0.0003428179 -0.015408549 0.2931047 0.08999463
0.17124602 0.04716185 0.014400333 -0.011727544 0.017414583 -0.009322665 -0.18312617 0.024438456
0.13506757 0.24993949 -0.0325323 0.21157081 -0.011023968 0.0120568555 -0.06841535 0.009478858
-0.12563126 0.28867814 -0.061546955 -0.18548666 0.0077029443 -0.002861746 -0.006181967 -0.019095737
-0.016543506 -0.08635796 0.22519489 0.019319886 -0.25036898 0.15725462 -0.021923052 -0.0071610906
00000000: 78c9 613b 7a0d b5bc 833b 14bc cf94 323b
00000010: 4f5c 4abe 03af 293c 864f e03b d475 bcbc
00000020: 1f4c 193c 921a 9f3e 72ac 633e 8799 633c
00000030: 87ca bbbc 3897 23be b725 ae3b 571c a83d
00000040: 01a7 dcbd aed5 cf3a e6f3 44bc 52ec b63d
00000050: 08cb cabb dec7 19bc 3a0c 943a c6de 9abc
00000060: 4a36 26bd 4444 4ebc 9a01 9cbe fe72 833e
00000070: 3dbc b3b9 2474 7cbc d211 963e 1b4f b83d
00000080: 1e5b 2f3e c92c 413d 60ef 6b3c e224 40bc
00000090: 07a9 8e3c 17be 18bc 6d85 3bbe 2833 c83c
000000a0: 274f 0a3e 23f0 7f3e 9740 05bd 05a6 583e
000000b0: e09d 34bc 1e8a 453c 591d 8cbd 364d 1b3c
000000c0: 7ba5 00be 9fcd 933e a918 7cbd 37f0 3dbe
000000d0: fb68 fc3b 218c 3bbb 1992 cabb aa6e 9cbc
000000e0: 3f86 87bc 71dc b0bd 7d99 663e bd44 9e3c
000000f0: 5d30 80be 5b07 213e f997 b3bc 95a7 eabb

std.constant12 f4 [64]
0.03188637 0.044672474 -0.019731319 -0.0063031353 0.039002985 0.1251235 0.05644188 0.034687493
0.08554911 0.055680517 0.0005553218 0.044377554 0.03176799 0.047715377 0.0061364993 0.0071350266
-0.0072453697 0.006571425 0.031142142 0.016740251 -0.00037741096 0.011478368 0.026004158 0.0021002279
0.0044057434 0.042381316 0.04289671 0.008574399 0.0012320668 0.027167264 0.09152178 0.020326516
0.03743623 0.084016025 -0.014097378 0.011042389 0.028327484 0.03405036 -0.010385686 0.04898869
-0.016332995 0.049486615 0.017609915 0.014494742 -0.00257851 0.0445535 0.13200757 0.00015250368
0.008435074 0.113688186 0.03418713 0.0075883456 0.00299735 0.035110343 0.046653427 0.01811241
0.1012716 0.010342384 0.029968055 0.005869273 0.07177717 0.03672165 0.047506977 0.013809143
00000000: 489b 023d 7cfa 363d 93a3 a1bc 888a cebb
00000010: 98c1 1f3d 6020 003e 9a2f 673d 7914 0e3d
00000020: 5f34 af3d 4111 643d 0493 113a 3dc5 353d
00000030: 271f 023d 3371 433d b014 c93b f1cc e93b
00000040: 916a edbb 1c55 d73b ce1d ff3c da22 893c
00000050: 3edf c5b9 c40f 3c3c ac06 d53c faa3 093b
00000060: 0e5e 903b 0898 2d3d 76b4 2f3d a37b 0c3c
00000070: 4d7d a13a e28d de3c c56f bb3d cb83 a63c
00000080: bb56 193d 9810 ac3d b0f8 66bc 23eb 343c
00000090: 0a0f e83c 6478 0b3d b928 2abc 5da8 483d
000000a0: c6cc 85bc 7ab2 4a3d ab42 903c 5b7b 6d3c
000000b0: 38fc 28bb bb7d 363d fe2c 073e 65e9 1f39
000000c0: 4433 0a3c 5ad5 e83d ce07 0c3d a8a7 f83b
000000d0: 306f 443b ddcf 0f3d aa17 3f3d 7a60 943c
000000e0: 7c67 cf3d 1a73 293c 917f f53c 0853 c03b
000000f0: e9ff 923d 7169 163d ad96 423d be3f 623c

std.constant13 f4 [64, 256]
-0.026087783 0.1172345 0.12700436 -0.010827868 0.0316315 0.017750965 0.018815 0.052629143
-0.027509775 -0.13043205 -0.0581049 0.0036259696 -0.06322777 0.07442396 -0.038766745 -0.13394953
0.024030339 -0.0032993427 0.1480256 -0.1118626 0.0016674182 -0.17525774 -0.069407895 0.0343752
0.015229031 0.09048627 -0.11332726 -0.040261917 0.096752934 -0.14322637 0.18388641 0.13384697
-0.16975205 0.0021848138 0.058776837 0.012483708 -0.011402622 0.09458524 -0.08572173 0.06316546
-0.021989852 -0.12396007 -0.0030910876 -0.009889258 0.07550725 -0.05917101 0.017893692 -0.19523068
-0.067372754 0.18591909 0.009759634 -0.16615665 -0.061794445 -0.026659928 0.025400778 -0.0044503706
0.01864373 0.035379034 -0.032394327 0.038456637 -0.07809368 -0.14707445 -0.011760951 0.04758298
0.057174206 0.09340243 -0.028926425 -0.06480759 -0.0622131 0.12503336 -0.14383964 0.118694164
-0.041952237 0.013158874 -0.21738999 -0.09106139 0.17196974 -0.02567877 -0.009960408 -0.0007760948
0.01402791 -0.07870984 -0.05410735 -0.0015097623 -0.07109395 -0.058746167 0.021753907 0.051318392
-0.09245617 0.06390482 -0.012919077 -0.055343997 -0.07432524 -0.030537713 0.015097097 0.0064818757
-0.015958877 0.12719874 -0.12283621 0.1955092 0.16566548 -0.069505475 -0.0011168139 -0.02088916
0.062257703 -0.010797921 0.035006046 -0.15979913 0.034179397 -0.17147134 0.028966796 -0.17790936
0.02613506 0.11746431 -0.06327373 0.037093583 -0.05287251 0.09982311 0.16430634 0.0028569282
0.037875105 0.07129016 0.11589421 0.05210597 -0.07417446 0.09763622 -0.121400714 0.17048165
0.04918182 0.014168338 0.09584482 -0.04422691 0.021080924 -0.03276992 -0.13347635 -0.029338136
0.08965988 -0.04061128 -0.044821583 -0.04377221 0.016798815 -0.023519 -0.03803834 -0.08250609
0.021181379 0.13261 0.041660197 -0.032073904 -0.1277857 -0.053155944 -0.09473435 -0.10717234
0.008224919 -0.079790495 0.03968185 -0.05581557 0.14359659 -0.10411989 0.13908063 0.067073554
-0.12780803 -0.04222107 -0.06845135 0.15411246 -0.12581372 -0.07635471 -0.0794855 0.065111436
0.13238175 0.018246071 0.019277409 -0.036235094 -0.021380913 0.06107175 0.031230386 0.12797414
-0.003514872 0.028430097 -0.13090818 0.023800094 -0.17861646 -0.027553752 0.018285805 -0.038521703
0.040749617 -0.008613196 0.13831557 0.17846712 0.038156647 -0.07506889 -0.1416536 -0.022445995
0.13319248 0.0435245 -0.03825025 -0.07637272 -0.075883724 -0.07991475 -0.050807085 -0.1262109
-0.047813445 -0.088532224 -0.08071665 -0.22552846 0.055332877 0.07653572 -0.14763355 0.08522268
-0.025028562 -0.00093285285 -0.11527138 -0.17170803 -0.05752586 0.19597349 -0.086418994 0.028666578
0.050027285 0.009164439 -0.028842619 -0.08558815 0.10893963 -0.07116937 -0.05354961 -0.09921033
-0.053164072 -0.15391676 -0.14421467 -0.14211458 0.069719866 -0.05780977 0.11775297 -0.020116704
-0.104253575 -0.07737128 0.008643988 -0.090985864 0.14220165 0.035239294 0.2089177 -0.025302693
-0.12336656 0.06526433 0.011300082 0.06385982 -0.14083886 -0.036165576 -0.03246243 0.07621953
0.1404043 -0.0002696606 -0.16001602 0.13493454 -0.03262544 0.07766809 -0.034577012 0.065641224
00000000: 0cb6 d5bc a418 f03d 6e0d 023e 5f67 31bc
00000010: 0890 013d 796a 913c ea21 9a3c a891 573d
00000020: 2e5c e1bc fb8f 05be 67ff 6dbd ada1 6d3b
00000030: 907d 81bd 976b 983d e1c9 1ebd 112a 09be
00000040: 46db c43c c939 58bb 0694 173e 3818 e5bd
00000050: 458d da3a c476 33be ba25 8ebd 02cd 0c3d
00000060: 3083 793c de50 b93d 1f18 e8bd aee9 24bd
00000070: 6726 c63d efa9 12be b84c 3c3e 2e0f 093e
00000080: 7bd3 2dbe 182f 0f3b fbbf 703d 7788 4c3c
00000090: 10d2 3abc e8b5 c13d e08e afbd e55c 813d
000000a0: 1024 b4bc c7de fdbd d893 4abb 8e06 22bc
000000b0: 8ca3 9a3d 4d5d 72bd cb95 923c 8dea 47be
000000c0: bafa 89bd 9361 3e3e dfe6 1f3c f824 2abe
000000d0: 2c1c 7dbd ec65 dabc 4b15 d03c 6ad4 91bb
000000e0: bcba 983c 9be9 103d eaaf 04bd b584 1d3d
000000f0: 94ef 9fbd af9a 16be 01b1 40bc 5fe6 423d
00000100: 802f 6a3d c649 bf3d 1cf7 ecbc d7b9 84bd
00000110: 2ad3 7ebd bf08 003e b34a 13be ed15 f33d
00000120: 1cd6 2bbd 5198 573c 7b9b 5ebe 657e babd
00000130: d618 303e 495c d2bc fb30 23bc d772 4bba
00000140: 52d5 653c a032 a1bd ab9f 5dbd 37e3 c5ba
00000150: b499 91bd d29f 70bd 4035 b23c 3c33 523d
00000160: a959 bdbd 88e0 823d 89aa 53bc 63b0 62bd
00000170: d537 98bd 3a2a fabc d059 773c ea65 d43b
00000180: 31bc 82bc 6340 023e 8d91 fbbd 9033 483e
00000190: 36a4 293e e358 8ebd 0e62 92ba be1f abbc
000001a0: ef01 7f3d c3e9 30bc 8062 0f3d 62a2 23be
000001b0: b2ff 0b3d 2f96 2fbe c64b ed3c df2d 36be
000001c0: 3119 d63c 2191 f03d a895 81bd 71ef 173d
000001d0: d890 58bd 0f70 cc3d ec3f 283e 4d3b 3b3b
000001e0: ed22 1b3d 9300 923d f259 ed3d 126d 553d
000001f0: c7e8 97bd 80f5 c73d f0a0 f8bd be92 2e3e
00000200: e072 493d 5122 683c 4a4a c43d 4727 35bd
00000210: e7b1 ac3c c039 06bd 06ae 08be 8856 f0bc
00000220: 999f b73d 0358 26bd d696 37bd 7d4a 33bd
00000230: ab9d 893c ebaa c0bc 17ce 1bbd f4f8 a8bd
00000240: 9284 ad3c eaca 073e e2a3 2a3d ed5f 03bd
00000250: 41da 02be 0cba 59bd 1504 c2bd 2c7d dbbd
00000260: d0c1 063c 3369 a3bd 6f89 223d de9e 64bd
00000270: fc0a 133e cf3c d5bd 276b 0e3e dc5d 893d
00000280: 1ce0 02be 00f0 2cbd 3930 8cbd a8cf 1d3e
00000290: 50d5 00be dc5f 9cbd 4bc9 a2bd 2559 853d
000002a0: 158f 073e c978 953c a8eb 9d3c 406b 14bd
000002b0: 0627 afbc 5f26 7a3d ded6 ff3c a70b 033e
000002c0: c459 66bb 3ce6 e83c cb0c 06be 6af8 c23c
000002d0: 3ce7 36be 68b8 e1bc 1dcc 953c efc8 1dbd
000002e0: 12e9 263d 5d1e 0dbc 99a2 0d3e 16c0 363e
000002f0: 254a 1c3d b8bd 99bd a40d 11be aae0 b7bc
00000300: 9c63 083e bf46 323d 4bac 1cbd 4d69 9cbd
00000310: ed68 9bbd 58aa a3bd 171b 50bd 6e3d 01be
00000320: 08d8 43bd 6250 b5bd c54e a5bd eff0 66be
00000330: baa4 623d c2be 9c3d 402d 17be 3a89 ae3d
00000340: b308 cdbc b28a 74ba 6713 ecbd 3bd4 2fbe
00000350: 3ca0 6bbd 46ad 483e 71fc b0bd 2cd6 ea3c
00000360: 69e9 4c3d 7126 163c 5b47 ecbc d748 afbd
00000370: be1b df3d 3fc1 91bd d656 5bbd c92e cbbd
00000380: 92c2 59bd 5b9c 1dbe 03ad 13be 7c86 11be
00000390: 4ac9 8e3d f0c9 6cbd 7828 f13d c9cb a4bc
000003a0: e682 d5bd d574 9ebd 839f 0d3c cc56 babd
000003b0: 4f9d 113e 1457 103d 86ee 553e 9847 cfbc
000003c0: 9ba7 fcbd 4ea9 853d fb23 393c f0c8 823d
000003d0: 1038 10be 5b22 14bd 53f7 04bd fc18 9c3d
000003e0: 25c6 0f3e 3c61 8db9 3ddb 23be 482c 0a3e
000003f0: 41a2 05bd 7310 9f3d a0a0 0dbd e86e 863d
