app/src/main/ml/word_seg_model_mini.tflite (tflite, 965444 bytes, 52 tensors)

embedding_1/embeddings f4 [114, 256]
0	0x3c7ba804	0.015359882
1	0x3ca6f032	0.020378206
2	0x3ca88fe2	0.020576421
3	0x3aab6c00	0.0013078451
4	0x3c63761c	0.01388314
5	0x3c992b4e	0.018697407
6	0x3d30e633	0.043188285
7	0xbd358787	-0.044318702
8	0xbd2926b6	-0.041296683
9	0x3bc6ad30	0.006063126
10	0xbd405a90	-0.046961367
11	0x3c40e28c	0.011772763
12	0xbb7e2e30	-0.0038784854
13	0xbd340c4a	-0.043957032
14	0x3d3e1cbd	0.046414126
15	0xbc76d974	-0.015066493
16	0xbc84a674	-0.016192652
17	0x3cdaa932	0.026692007
18	0xbcbffcfa	-0.023436058
19	0xbd05ab54	-0.032634094
20	0x3d3bac79	0.04581878
21	0xbb760460	-0.0037539229
22	0xbcc45060	-0.023964107
23	0xbd3f73aa	-0.046741165
24	0x3cc02ed2	0.023459826
25	0x3c1c8268	0.009552576
26	0xbc7b6f80	-0.015346408
27	0xbc78f2cc	-0.015194606
28	0xbd4a0de3	-0.04932965
29	0xbba5ade8	-0.0050561316
30	0xbcb8fdb3	-0.02258191
31	0xbd44b483	-0.048023712
32	0xbccc3d5a	-0.024931598
33	0xbd476827	-0.04868331
34	0xbd403c0a	-0.046932258
35	0xbcf9afba	-0.0304793
36	0x3c064918	0.008196138
37	0xbd2753fa	-0.04085157
38	0x3c7cfd1c	0.015441205
39	0xbc63e70c	-0.013910066
40	0x3d3e3bd9	0.046443794
41	0xbbe88e50	-0.007097043
42	0xbd132c60	-0.03593099
43	0xbcf1709a	-0.029472638
44	0x3c7894c4	0.015172187
45	0xb93d5300	-0.00018055364
46	0x3d399581	0.045308594
47	0xbd1d3dcd	-0.038389016
48	0xbd2a9db0	-0.04165429
49	0xbd2e693a	-0.04258082
50	0xbcf1f4d3	-0.029535687
51	0x3d04e0f9	0.032441113
52	0xbd079866	-0.033104323
53	0x3cdc130e	0.026864555
54	0xbd050d54	-0.032483414
55	0x3d241029	0.040054474
56	0xbabf43a0	-0.0014592297
57	0xbcc35987	-0.0238464
58	0xbce8bc60	-0.028410137
59	0xbcc77fc7	-0.024352921
60	0xbc55da74	-0.013052572
61	0xbcdc1fcd	-0.026870633
62	0x3d0fd01d	0.03511058
63	0x3c173a0c	0.009230148
64	0xbb0584a0	-0.002037324
65	0x3ca49692	0.020091329
66	0x3cdc8012	0.026916537
67	0x3b5b83d0	0.0033495314
68	0x3d4699f9	0.048486684
69	0x3d2e3d37	0.042538848
70	0xbc2f55d8	-0.010701619
71	0xbd2bda0a	-0.041955985
72	0x3d01c271	0.031679574
73	0xbc8daf14	-0.017295398
74	0x3d200fed	0.039077688
75	0x3b86d730	0.004115008
76	0x3ca71be6	0.020399045
77	0xbbc2bd18	-0.005942952
78	0x3cbc77ee	0.023006406
79	0x3b18fe60	0.0023344979
80	0xbd35e570	-0.04440826
81	0x3d141ce9	0.036160383
82	0x3ccdb13a	0.025108922
83	0xbb293d60	-0.0025823936
84	0x3ca34006	0.01992799
85	0x3c9236ba	0.017848361
86	0xbc0bc0c0	-0.008529842
87	0xbbe0f6e8	-0.006865371
88	0x3b802798	0.00391097
89	0xbc5a9e68	-0.013343431
90	0x3c68f664	0.0142189
91	0x3c30d0cc	0.010791969
92	0xbd46afb3	-0.048507404
93	0x3d3a37a9	0.045463238
94	0xbcc520d3	-0.024063503
95	0x3d489f0d	0.048979808
96	0x3c7301e4	0.014831994
97	0x3ce5cf72	0.02805302
98	0xbb5236a0	-0.0032076016
99	0x3b083560	0.0020783767
100	0xbc5c2a74	-0.013437856
101	0x3d3a33c9	0.045459542
102	0xbbf8d100	-0.007593274
103	0xbb017fa0	-0.0019759908
104	0xbd21093d	-0.03931545
105	0x3d2a3f53	0.041564297
106	0x3d45c769	0.048285875
107	0xbd334cba	-0.043774344
108	0x3bfd6a80	0.007733643
109	0xbd40f633	-0.047109794
110	0x3cd5d0c6	0.026100527
111	0xbd197380	-0.037463665
112	0x3c120868	0.008913137
113	0x3d040d37	0.032239165
114	0xbcbddc0d	-0.023176217
115	0x3d2ddc89	0.042446647
116	0x3d0ba5e9	0.03409377
117	0xbcb96367	-0.022630407
118	0xbc4a03a8	-0.012329973
119	0x3d3aae2d	0.045576263
120	0x3cabb1b2	0.020958755
121	0x3ccba86e	0.024860587
122	0x3bee93d0	0.007280804
123	0x3c76b004	0.015056614
124	0xbb6430a0	-0.0034819022
125	0x3bc019d0	0.005862452
126	0x3c150db4	0.009097505
127	0x3d079873	0.03310437
128	0x3d33c397	0.0438877
129	0x3d1b2719	0.037879083
130	0xbd1e1c53	-0.03860123
131	0x3c02d268	0.007984735
132	0x3d3cc039	0.046081755
133	0xbcddb460	-0.027063549
134	0x3d47e841	0.04880548
135	0xbcb099da	-0.021557737
136	0x3d4c5569	0.04988614
137	0xbcb7050d	-0.022341276
138	0xbd33d86d	-0.04390757
139	0x3c983422	0.018579546
140	0x3b1792d0	0.0023128279
141	0xbaec55a0	-0.0018030889
142	0xbc378a98	-0.011202477
143	0xbd46f1dd	-0.048570503
144	0x3d07bbf9	0.03313825
145	0x3d114c11	0.035472933
146	0x3c2dd9a8	0.010610975
147	0xbbb3b718	-0.005484473
148	0x3c0121d8	0.007881604
149	0xbd207d33	-0.0391819
150	0xbce79573	-0.028269505
151	0xbca5612d	-0.020187939
152	0xbc95a2ba	-0.01826607
153	0xbcd3960d	-0.025828386
154	0x3d37bb91	0.04485661
155	0x3c0a8740	0.008455098
156	0xbce4b380	-0.027917624
157	0x3c997406	0.018732082
158	0xbc82364c	-0.015895031
159	0x3c206ef4	0.009792078
160	0x3d078517	0.03308591
161	0x3cf2feb2	0.029662464
162	0x3d37bee3	0.044859778
163	0xbd1b42e6	-0.037905596
164	0x385c6800	5.2548945e-05
165	0x3d495647	0.049154546
166	0xbd210de6	-0.039319895
167	0xbd02e39a	-0.03195534
168	0xbc556d8c	-0.013026606
169	0x3d33c5e1	0.043889884
170	0x3d412a89	0.047159705
171	0xbd276d1d	-0.040875543
172	0x3d1cb9b3	0.038263034
173	0xbc417a80	-0.011808991
174	0x3d1edfc3	0.038787615
175	0xbcf50dfa	-0.029913891
176	0xbd1e9a9a	-0.03872166
177	0x3bf52c68	0.0074821003
178	0xbd2aa51a	-0.04166136
179	0xbcbe1d67	-0.02320738
180	0x3bd32d00	0.0064445734
181	0xbc1beb28	-0.009516515
182	0x3d0d195d	0.034448016
183	0x3d0eb8f3	0.03484435
184	0xbd36172d	-0.044455696
185	0xb9e52680	-0.00043706968
186	0xbc759928	-0.014990129
187	0x3d2f3543	0.042775404
188	0x3d065cf9	0.03280351
189	0x3d1c3239	0.038133834
190	0xbbf72f98	-0.0075435154
191	0x3c704164	0.014664028
192	0x3d1b7707	0.03795531
193	0xbc38348c	-0.011242997
194	0xbd0fef76	-0.035140477
195	0x3d497977	0.049188104
196	0x3c1eff80	0.009704471
197	0x3d45f789	0.04833177
198	0x39c2b300	0.0003713593
199	0xbbe89c68	-0.007098723
200	0x3c04d2b4	0.008106876
201	0x3d3133f7	0.04326245
202	0x3d41101d	0.047134507
203	0xbd018120	-0.031617284
204	0xbcbe8147	-0.023255004
205	0x3d381087	0.044937637
206	0xbc9e774d	-0.019343996
207	0x3cc063b2	0.023485038
208	0x3d16c469	0.036808405
209	0x3d0f8bd1	0.03504545
210	0xbd10f970	-0.035394132
211	0xbcb4f23a	-0.022088159
212	0x3d2b4129	0.04181019
213	0xbbd51880	-0.006503165
214	0x3c73ce64	0.01488075
215	0xbd3f0e13	-0.04664428
216	0xbc9f0947	-0.019413603
217	0xbd3393bd	-0.043842066
218	0x3ca286da	0.019839693
219	0xbb040500	-0.0020144582
220	0xbb18b200	-0.0023299456
221	0x3d42b65d	0.047537196
222	0xba03ca80	-0.0005027428
223	0xbd479727	-0.048728134
224	0xbc1206f4	-0.008912791
225	0xbc80a17a	-0.015701998
226	0xbd23137d	-0.039813507
227	0xbb4283a0	-0.0029680505
228	0xbcfebe13	-0.031096494
229	0xbd356dfd	-0.044294346
230	0xbd3c679a	-0.04599724
231	0x3cb9b8a6	0.022671055
232	0x3c6c520c	0.014423858
233	0x3c1d1568	0.009587623
234	0xbc082d98	-0.008311652
235	0xbc9676ac	-0.018367134
236	0xbc881a74	-0.016614176
237	0x3cb6c4b2	0.022310589
238	0x3bd4ce50	0.006494321
239	0xbb33b830	-0.0027423017
240	0xbce2891a	-0.027653266
241	0x3d439b59	0.047755573
242	0xbce15667	-0.02750702
243	0xbd2b1186	-0.04176476
244	0x3c186d34	0.00930338
245	0xbca0df47	-0.019637717
246	0x3d0a42c3	0.033755075
247	0x3d05e5c9	0.032689843
248	0x3aafe940	0.0013420954
249	0x3d476bb7	0.04868671
250	0xbcf6cf8d	-0.030128265
251	0xbb96c1e8	-0.004600752
252	0x3b95bfe8	0.004569996
253	0x3d392889	0.045204673
254	0xbc524a58	-0.012835108
255	0x3c2e7d00	0.0106499195

dense_2/bias f4 [64]
0	0xbaa30bc4	-0.001243942
1	0xba5c1f3b	-0.00083969877
2	0xbabb88cd	-0.0014307738
3	0xbb35cfd3	-0.002774228
4	0xbb144bea	-0.0022628256
5	0xbac09971	-0.0014694167
6	0xba527a6f	-0.0008029108
7	0xb99a0a6c	-0.00029380934
8	0xba1ab07c	-0.0005900932
9	0x3b037fa2	0.0020065089
10	0xbb293050	-0.002581615
11	0xba1e8997	-0.0006047724
12	0xba10fbe0	-0.00055306964
13	0xba1851d6	-0.00058105343
14	0xba680339	-0.0008850578
15	0xbb856b09	-0.0040715975
16	0xba29c9b1	-0.0006476893
17	0xbb49eb80	-0.0030810535
18	0xb9eb4781	-0.00044875967
19	0xbb32786b	-0.002723242
20	0xbab1d5e1	-0.0013567769
21	0xb93e7b78	-0.00018165808
22	0xbb1882e8	-0.0023271386
23	0xb96c62c2	-0.00022543504
24	0xbb00b320	-0.0019638017
25	0xba48c235	-0.00076583336
26	0xbac774a0	-0.0015217252
27	0xbb23785e	-0.002494357
28	0xbb5d7765	-0.0033793089
29	0xbaa981e6	-0.001293239
30	0xba5364e5	-0.00080640457
31	0xbba2e347	-0.004970941
32	0xbb3d191c	-0.0028854078
33	0xbb5e1442	-0.0033886586
34	0xba2dada8	-0.0006625303
35	0xba435a7a	-0.0007452142
36	0xbb00b38c	-0.0019638268
37	0xbb2d3d75	-0.0026434336
38	0xba34fee0	-0.00069044344
39	0xba5ec87e	-0.00084985036
40	0xba1501e7	-0.00056841824
41	0xbada973f	-0.0016677155
42	0xba46b6b6	-0.00075803266
43	0xbb1fa748	-0.0024361182
44	0xbb118e34	-0.0022210004
45	0xba26abf6	-0.00063580216
46	0xbad8f160	-0.0016551428
47	0xbacf6eba	-0.0015825846
48	0xbb0c91f6	-0.0021449304
49	0xbafeefa0	-0.0019450076
50	0xba558eab	-0.00081465644
51	0xbb0f3882	-0.002185375
52	0xbad282c5	-0.0016060701
53	0xba2c3746	-0.00065695157
54	0xba1c8684	-0.0005970972
55	0xbb3f503f	-0.0029192118
56	0xba01760b	-0.0004938549
57	0xb8dd6a1c	-0.000105578656
58	0xba560d82	-0.0008165465
59	0xba94933b	-0.0011335382
60	0xbb25861a	-0.0025256933
61	0xbae5ef45	-0.0017542621
62	0xba32e799	-0.0006824672
63	0xbb40daef	-0.002942737

std.constant5 f4 [64, 64]
0	0x3e2a4dde	0.16631266
1	0xbd106370	-0.03525108
2	0x3db4c642	0.08826877
3	0x3e357215	0.177193
4	0xbcfd8fb2	-0.030952308
5	0xbcafb7c8	-0.021449938
6	0xbcb58349	-0.022157328
7	0xbc62d917	-0.013845704
8	0xbcf5960a	-0.02997877
9	0x3d2f3ba1	0.042781476
10	0x3c6433cc	0.013928365
11	0x3da772f6	0.08176224
12	0xbcda68b4	-0.026661254
13	0x3d92226d	0.071354724
14	0x3d5d76d6	0.05406841
15	0x3ce12fa8	0.027488545
16	0xbc7fc1a3	-0.015610131
17	0xbc48b7d1	-0.0122508565
18	0xbd564286	-0.052309535
19	0x3ce837ac	0.028346859
20	0x3bc4d606	0.006006959
21	0xbd7ab68c	-0.061209247
22	0x3d03e4d9	0.032200668
23	0x3e31901c	0.1734013
24	0x3de416b3	0.11137142
25	0x3d1aac34	0.037761882
26	0xbd6cbb0f	-0.05779558
27	0x3dd71cbb	0.10503527
28	0xbd4816da	-0.048849918
29	0xbd1cf54e	-0.03831988
30	0x3e180f3a	0.14849558
31	0xbdf465db	-0.1193349
32	0x3d4ac347	0.049502637
33	0xbce6f25f	-0.028191743
34	0xbda0cea4	-0.078519136
35	0x3cf6577e	0.030071016
36	0xbdac944a	-0.084267214
37	0xbd78caab	-0.060740154
38	0xbdce0cd0	-0.100610375
39	0x3da21acb	0.079152666
40	0xbdc2a373	-0.09503832
41	0xbde76524	-0.11298588
42	0xbd3fcf01	-0.046828274
43	0xbb4d8bb7	-0.0031363794
44	0x3dafcb80	0.085837364
45	0xbd203b23	-0.039118897
46	0xbdc83ebd	-0.097775914
47	0x3c86104b	0.016365191
48	0xbb785e64	-0.0037898058
49	0x3da58e0f	0.08083736
50	0xbc0924a3	-0.008370551
51	0x3ca28854	0.019840397
52	0xbd7db247	-0.061937597
53	0x3dff058d	0.124522306
54	0xbdc171ec	-0.09445557
55	0x3c9258a0	0.017864525
56	0x3d01edc3	0.031720888
57	0x3d86f981	0.06590558
58	0xbdfde5d4	-0.12397352
59	0x3d123c74	0.035702184
60	0xbd5997a4	-0.05312313
61	0xbddc048b	-0.10743054
62	0x3d72d5c9	0.059285913
63	0x3d9b9be1	0.07598091
64	0xbd7ed0b0	-0.06221074
65	0xbcd8236d	-0.02638408
66	0x3ca99825	0.020702431
67	0xbc9daac0	-0.019246459
68	0x3ca2fd91	0.0198963
69	0x3cf6084e	0.030033257
70	0xbd659220	-0.05604756
71	0x3c2f9be2	0.010718318
72	0xbd20f6c0	-0.03929782
73	0xbdb19ad6	-0.08672111
74	0x3c8dea57	0.017323656
75	0xbaf8710b	-0.0018954588
76	0x3be64fea	0.0070285695
77	0xbbdecd82	-0.006799401
78	0xbe08e842	-0.1336985
79	0xba3ce4bd	-0.00072057155
80	0x39d7736c	0.00041093992
81	0xbd13d866	-0.036095046
82	0x3cd928e1	0.02650875
83	0x3d3dc2d7	0.046328392
84	0x3dcbe4b0	0.09955728
85	0xbd6f8f2a	-0.05848614
86	0xbd95e110	-0.07318318
87	0x3d950320	0.07275987
88	0xbd136a57	-0.035990085
89	0xbd369e66	-0.044584654
90	0xbe5d32b1	-0.21601368
91	0x3d2f7dce	0.042844586
92	0x3c8a778b	0.016902706
93	0xbdc02447	-0.09381919
94	0x3cc398c5	0.023876557
95	0x3e047dba	0.12938586
96	0x3d340e03	0.043958675
97	0xbacf9d63	-0.0015839752
98	0xbc3695e9	-0.01114414
99	0x3d8795b3	0.0662035
100	0x3dd24b27	0.102682404
101	0xbbc0a95e	-0.005879565
102	0xbd27409a	-0.040833093
103	0x3d9f5349	0.07779557
104	0xbd337a40	-0.04381776
105	0x3cb91c1f	0.022596417
106	0x3d87e5b1	0.06635607
107	0x3cf09599	0.029368209
108	0x3d64118f	0.055680808
109	0xbdcc82db	-0.09985896
110	0xbda19c90	-0.0789119
111	0x3d2718fb	0.040795308
112	0xbcc36005	-0.023849497
113	0x3d86d114	0.06582847
114	0xbd6f0bfd	-0.058361042
115	0x3db91ef9	0.09039111
116	0x3cd68e4a	0.026190896
117	0xbcdcaaca	-0.026936907
118	0x3d200054	0.039062813
119	0xbca9b36f	-0.020715443
120	0xbdbec7f9	-0.093154855
121	0x3d6c344e	0.05766707
122	0xbbae4697	-0.0053184736
123	0xbdbc69c3	-0.0919986
124	0x3b98ab07	0.00465906
125	0xbd0e93af	-0.03480881
126	0x3d82cd95	0.06386868
127	0x3d1d9490	0.03847176
128	0xbd08aee6	-0.03336992
129	0x3d314a5f	0.043283816
130	0xbd5c7f93	-0.0538326
131	0xbd46eac9	-0.048563752
132	0xbe73f673	-0.23824482
133	0xbd733ab4	-0.059382156
134	0xbd944070	-0.07238853
135	0x3dc6661e	0.09687446
136	0xbd3e6e51	-0.046491925
137	0x3df5bac9	0.11998517
138	0x3c43ddde	0.011954753
139	0xb9c48219	-0.00037480964
140	0xbd505ee0	-0.05087173
141	0x3da15b4e	0.07878743
142	0x3d5fe7b3	0.054664325
143	0xbe04afd8	-0.12957704
144	0x3d6e1eea	0.05813495
145	0xbd9c07ca	-0.07618673
146	0xbe2f6119	-0.17126884
147	0xbb23706a	-0.002493883
148	0xbe018678	-0.12648952
149	0xbd92afc1	-0.07162429
150	0x3d406894	0.046974733
151	0x3d9864a4	0.07441071
152	0x3e02349c	0.12715381
153	0xbd659c0b	-0.056057017
154	0xbdd698ff	-0.104784004
155	0x3d4369aa	0.04770819
156	0x3d332916	0.043740354
157	0xbd2a49a8	-0.04157415
158	0x3e1ef597	0.15523373
159	0x3d306d60	0.043073058
160	0x3e0000f5	0.12500365
161	0x3d688a07	0.056772258
162	0xbdd4275c	-0.1035907
163	0xbcde4aff	-0.02713537
164	0xbd874755	-0.066054024
165	0xbd7480ce	-0.05969315
166	0xbd67735a	-0.056506492
167	0x3cde67cb	0.027149102
168	0x3d8d0bb9	0.068870015
169	0x3d1ab359	0.037768696
170	0x3d78940d	0.060688067
171	0x3b11bf0c	0.0022239117
172	0x3e054745	0.13015468
173	0x3d889e4f	0.0667082
174	0xbd162ff6	-0.036666833
175	0x3dcaa3b3	0.098945044
176	0xbcbb766a	-0.022883613
177	0xbd2d5d8c	-0.04232554
178	0xbd2393b6	-0.03993579
179	0xbd115576	-0.035481893
180	0xbcc13e8f	-0.0235894
181	0x3cbac8ee	0.022800889
182	0xbd50f88e	-0.05101829
183	0xbd48556e	-0.048909597
184	0xbde6f19f	-0.11276554
185	0x3dc84d31	0.09780348
186	0xbd51f59c	-0.051259622
187	0x3dc30a72	0.09523477
188	0xbd0e1547	-0.03468826
189	0x3d746def	0.059675153
190	0x3de4cdfa	0.111720994
191	0xbd2da98d	-0.042398024
192	0x3d52b3c9	0.051440988
193	0x3baa2a68	0.0051930435
194	0xbdd2bb6b	-0.102896534
195	0xbdcea507	-0.1009007
196	0xbdb82f97	-0.08993452
197	0x3bc1377c	0.005896507
198	0xbdc350e8	-0.09536916
199	0x3dadf031	0.084930785
200	0x3c9d2065	0.019180486
201	0x3e025fd7	0.12731872
202	0x3e135bec	0.14390534
203	0x3bbc2a28	0.00574233
204	0xbd400c38	-0.046886653
205	0xbd79471a	-0.060858823
206	0xbda3d84f	-0.08000242
207	0xbb4fb555	-0.0031693776
208	0x3e1731c7	0.14765082
209	0xbdc18a02	-0.09450151
210	0xbda6abb7	-0.08138221
211	0x3da5844d	0.08081875
212	0xbd9bfbd0	-0.07616389
213	0xbd0d8ca7	-0.034557965
214	0x3df49b1a	0.11943646
215	0x3df563e0	0.1198194
216	0x3e3d92a8	0.18512976
217	0x3e3b51bf	0.18292902
218	0xbe0f2514	-0.13978988
219	0x3dae31c6	0.08505587
220	0x3dbfdc2b	0.093681656
221	0x3c800888	0.015629068
222	0x3e3eebba	0.1864461
223	0x3c7375bd	0.014859614
224	0x3e06d631	0.13167645
225	0xbd51de1e	-0.051237218
226	0xbd6e41b3	-0.058168124
227	0x3d923452	0.071388856
228	0xbe240306	-0.16016778
229	0xbd03861f	-0.03211033
230	0x3c0f9b2b	0.008765022
231	0xbd50d776	-0.05098673
232	0xbcfcd808	-0.03086473
233	0xbe2fc528	-0.17165053
234	0x3aad0622	0.001320068
235	0xbc15ec5f	-0.009150594
236	0xbd84f704	-0.06492427
237	0x3cf21133	0.029549217
238	0xbcf5aee2	-0.029990617
239	0x3ce299bd	0.027661199
240	0x3de588b8	0.11207718
241	0x3d432d7d	0.047650803
242	0xbc1706ad	-0.0092179
243	0xbcc55aa7	-0.024091078
244	0x3dbadd0f	0.09124195
245	0xbd094464	-0.033512488
246	0x3e09236f	0.13392423
247	0xbdbff79d	-0.093734
248	0xbda4833f	-0.08032846
249	0x3c6f0abb	0.014589961
250	0xbd3cd4dd	-0.04610144
251	0x3df27004	0.118377715
252	0x3d99208b	0.0747691
253	0xbe422938	-0.18961036
254	0x3d0c7e91	0.03430039
255	0xbd5360f0	-0.05160612

std.constant6 f4 [64, 64]
0	0xbd793864	-0.060844794
1	0xbd47e53d	-0.048802603
2	0x3c160b4e	0.009157969
3	0x3b365a37	0.0027824768
4	0xbd34cc5f	-0.044140216
5	0xbd00b9d0	-0.031427205
6	0xbc61cb52	-0.0137813855
7	0xbd2e40c4	-0.042542234
8	0xbd5c5192	-0.05378873
9	0x3d853ff3	0.06506338
10	0x3d12702f	0.035751518
11	0x3cc154bd	0.023599977
12	0x3d13e5e1	0.0361079
13	0x3c22028b	0.009888302
14	0x3d86ae0a	0.06576164
15	0xbd277d6e	-0.040891103
16	0x3b43103d	0.0029764317
17	0x3d423f02	0.04742337
18	0x3dcda8c7	0.10041957
19	0x3d1358af	0.035973247
20	0x3cea9e3a	0.028639901
21	0xbe16172e	-0.1465728
22	0x3d06185d	0.03273808
23	0x3c67ed7f	0.014155745
24	0xbce07c69	-0.027403073
25	0x3d54bb1c	0.051936254
26	0xbe1b6874	-0.15176564
27	0xbdb813a1	-0.08988119
28	0xbc212cf7	-0.009837381
29	0x3cde9f1b	0.027175477
30	0xbdb8b0ec	-0.0901812
31	0xbd106aa0	-0.035257936
32	0xbca89bc2	-0.020582084
33	0x3cc1b161	0.023644151
34	0x3d27cf94	0.040969446
35	0x3ca43dcf	0.020049004
36	0xbd54f11f	-0.051987763
37	0xbbe21e64	-0.0069005955
38	0xbdbe6651	-0.09296859
39	0xbdbdf7ae	-0.09275757
40	0xbd1d6925	-0.03843035
41	0xbccfaa07	-0.02534963
42	0x3c7298d7	0.014806948
43	0xbcdc1d5c	-0.026869468
44	0x3d09f092	0.03367669
45	0x3cc83824	0.024440832
46	0xbd060c35	-0.032726485
47	0xbc86e30e	-0.01646569
48	0x3d1370b1	0.035996143
49	0xbc89849c	-0.016786866
50	0x3da416ea	0.08012183
51	0xbd9e143f	-0.077187054
52	0x3d84796c	0.06468472
53	0x3d357244	0.044298425
54	0xbcaa1517	-0.02076201
55	0x3ca54c24	0.020177908
56	0x3d25062d	0.040289093
57	0xbdbedd3c	-0.09319541
58	0xbcd2c0c0	-0.025726676
59	0xbdc7c9ed	-0.09755311
60	0x3dc04307	0.093877845
61	0xbcb2abe0	-0.021810472
62	0x3e08564b	0.13314168
63	0xbd956703	-0.072950386
64	0x3db8e6ba	0.090283826
65	0x3e181761	0.14852668
66	0x3ccd383e	0.025051232
67	0xbdbe673c	-0.09297034
68	0x3c919660	0.0177719
69	0x3d2f11dd	0.042741645
70	0x3d4fb13a	0.050706126
71	0x3d5bd70d	0.053671885
72	0x3d1cc5d7	0.038274612
73	0x3df065b1	0.11738146
74	0x3bacc37f	0.0052723284
75	0x3ddb0104	0.10693553
76	0xbc106e5f	-0.008815377
77	0x3d6d207e	0.057892315
78	0x3d3f92c2	0.04677082
79	0x3c53f5b8	0.012937002
80	0xbdacc812	-0.08436598
81	0xbd3d5568	-0.046224028
82	0xbc44739a	-0.011990452
83	0xba927098	-0.0011172472
84	0xbdd7e252	-0.10541214
85	0xbd5394ce	-0.051655583
86	0xbd1efa2a	-0.038812794
87	0xbb9b036c	-0.0047306325
88	0x3c71c79e	0.014757065
89	0x3d8513dc	0.064979285
90	0x3e06698c	0.131262
91	0x3cef0d16	0.029181045
92	0x3d827703	0.06370356
93	0x3c884702	0.016635422
94	0x3d5d28e2	0.053994067
95	0xbd28998b	-0.041162055
96	0xbdd65a07	-0.1046639
97	0x3ca19bc9	0.019727604
98	0x3da322a8	0.079655945
99	0x3db15438	0.086586416
100	0xbd878817	-0.06617754
101	0x3dadd0c2	0.08487083
102	0x3de2d57f	0.110758774
103	0x3c0a1e49	0.008430072
104	0xbd693961	-0.056939486
105	0xbcbc1ceb	-0.022963008
106	0x3d9c1f63	0.07623174
107	0x3da1bc6a	0.07897265
108	0xbc70d129	-0.014698305
109	0xbc788a55	-0.0151697
110	0xbcdd6f26	-0.027030539
111	0x3bd6484f	0.0065393816
112	0xbe0d9903	-0.138279
113	0x3cec4d0c	0.028845333
114	0xbd8f0d93	-0.06985011
115	0x3d267d3c	0.040646777
116	0xbd9e78de	-0.07737897
117	0x3d65d2dd	0.056109298
118	0x3d556403	0.05209733
119	0xbca1a7d9	-0.019733356
120	0xbd29f1a9	-0.04149023
121	0x3d343c98	0.0440031
122	0xbd35635c	-0.04428421
123	0xbd9353fc	-0.07193753
124	0x3c408e58	0.011752687
125	0xbd8b4981	-0.06801129
126	0xbd34899a	-0.04407654
127	0xbb08ddb6	-0.0020884103
128	0xbd1f6ce1	-0.038922194
129	0xbe041677	-0.12899195
130	0xbdb6dc9b	-0.08928796
131	0x3b917744	0.0044392664
132	0x3d88c478	0.066780984
133	0x3c7918f8	0.015203707
134	0xbcc944ce	-0.024568941
135	0xbcaf0917	-0.021366639
136	0xbd88ca61	-0.06679226
137	0x3d96b7a3	0.07359245
138	0x3cc50aae	0.024052944
139	0x3ccbb84d	0.024868155
140	0xbd333774	-0.043754056
141	0xbd99fc0c	-0.07518777
142	0x3d98578f	0.074385755
143	0xbe02f0fa	-0.12787238
144	0xbc981d41	-0.018568637
145	0x3d8c9fa7	0.06866389
146	0xbcb5fd93	-0.02221564
147	0x3d7a52da	0.06111417
148	0x3c7efa74	0.015562642
149	0xbcb43e9d	-0.022002513
150	0x3d8d7774	0.069075495
151	0x3cb087b8	0.02154909
152	0xbcce9de9	-0.025221782
153	0x3dcfb316	0.1014158
154	0xbc2a4865	-0.010393237
155	0x3ccd5dbb	0.025069108
156	0x3d78ef10	0.060774863
157	0xbbd8ec2f	-0.006619952
158	0x3e310305	0.17286308
159	0xba868821	-0.0010263958
160	0x3d56e8c6	0.052468084
161	0x3b8e133c	0.004335789
162	0xbc6e320e	-0.014538301
163	0x3da25ce4	0.07927874
164	0xbddaf075	-0.10690395
165	0xbd8a40bd	-0.06750629
166	0xbd29898b	-0.041390937
167	0x3da59ab1	0.08086146
168	0x3dd6b63c	0.10483977
169	0x3d988c0e	0.07448588
170	0xbd858124	-0.06518772
171	0x3cdae62b	0.02672108
172	0xbd1e9274	-0.038713887
173	0xbd449a8a	-0.047998942
174	0x3d0e773a	0.034781672
175	0x3c718983	0.014742258
176	0xbbaf96dc	-0.00535856
177	0xbdd2e1a7	-0.10296946
178	0xbe03bdba	-0.12865344
179	0x3cfe0ed5	0.031012932
180	0xbcb13d92	-0.021635804
181	0xbc778e7e	-0.015109656
182	0xbd1d04e0	-0.038334727
183	0x3db42e83	0.08797934
184	0xbd3e3990	-0.046441615
185	0x3c9f6c5f	0.019460855
186	0xbdd71a81	-0.10503102
187	0x3db82190	0.089907765
188	0x3c3b889a	0.011446143
189	0xbcd4114c	-0.025887154
190	0x3db72277	0.089421205
191	0x3c922250	0.017838627
192	0xbda74d06	-0.08168988
193	0xbde91e1a	-0.113826945
194	0x3db86819	0.0900423
195	0xbdb3219d	-0.087466456
196	0x3db286ef	0.08717143
197	0x3bb8302b	0.0056209764
198	0x3c2c8185	0.010528927
199	0xbc2a49dd	-0.010393587
200	0xbc1f99fa	-0.009741301
201	0x3d705e1b	0.058683496
202	0xbd901dd9	-0.07036943
203	0xba56c37c	-0.00081925816
204	0x3d194951	0.037423436
205	0x3d93d4c0	0.07218313
206	0x3cf5da44	0.030011304
207	0xbd8506e8	-0.06495458
208	0xbdd18347	-0.10230117
209	0xbc1c1595	-0.00952663
210	0x3dc3aa57	0.09553974
211	0x3d8bb063	0.068207525
212	0x3d0efd74	0.03490968
213	0x3d38e3d7	0.04513916
214	0xbe4acb83	-0.19804196
215	0x3cbaf795	0.022823134
216	0xbcbed109	-0.023293035
217	0xbd85938c	-0.06522283
218	0x3d6cb918	0.057793707
219	0xbd3d5d81	-0.04623175
220	0xbdbb496a	-0.09144862
221	0xbd34c85e	-0.044136398
222	0x3cffff63	0.031249708
223	0x3c0b5974	0.008505214
224	0x3b224fc8	0.0024766792
225	0x3b36a21b	0.0027867618
226	0x3d25432d	0.040347267
227	0x3ca1eb9d	0.01976567
228	0x3da9cbc3	0.082908176
229	0x3cd45d96	0.025923532
230	0x3e183490	0.14863801
231	0x3d0d078c	0.034431025
232	0xbd86a553	-0.06574502
233	0x3d489866	0.048973463
234	0x3d837007	0.06417852
235	0xbd3e2b01	-0.04642773
236	0x3dbe452f	0.092905395
237	0x3d0eb818	0.034843534
238	0x3cf8ebf8	0.030385956
239	0xbd936110	-0.071962476
240	0xbe35f4b8	-0.17769134
241	0x3b848179	0.0040437547
242	0x3d8196a7	0.06327563
243	0x3c9c482b	0.019077381
244	0xbd628787	-0.05530503
245	0xbda00a5f	-0.07814478
246	0x3d82531c	0.06363508
247	0x3e20fbba	0.15721026
248	0xbe02e6f1	-0.1278341
249	0x3d42cced	0.047558714
250	0x3ddf2683	0.108960174
251	0x3c7a8b5e	0.015292017
252	0x3a2a1f20	0.00064896233
253	0xbd8a63ea	-0.06757338
254	0x3d683eeb	0.05670063
255	0x3e0290b9	0.1275052

std.constant7 f4 [64, 64]
0	0xbca87615	-0.020564118
1	0xbc643493	-0.01392855
2	0xbdca922c	-0.09891161
3	0xbd788ba7	-0.060680058
4	0xbd505841	-0.050865415
5	0xbd04a390	-0.032382548
6	0xbd869a84	-0.0657244
7	0x3cf9e7b4	0.030505992
8	0xbbbd46fb	-0.005776284
9	0x3d9cbbfa	0.07653041
10	0x3cccc724	0.024997301
11	0xbc92f3cb	-0.017938515
12	0xbc48c5f0	-0.012254223
13	0x3ce410a5	0.027839968
14	0x3d73606e	0.059418134
15	0xbb994d61	-0.0046784137
16	0x3d9af481	0.07566167
17	0x3dd6362d	0.10459552
18	0x3bf02db6	0.007329668
19	0x3d4c626b	0.049898546
20	0x3dbe14d1	0.09281314
21	0xbdb48003	-0.08813479
22	0x3c7b7c18	0.0153494105
23	0x3d777d13	0.060422014
24	0xbc581678	-0.013188951
25	0xbda5c6b1	-0.08094538
26	0xbd9565d0	-0.0729481
27	0xbca128b1	-0.019672723
28	0xbac27035	-0.0014834466
29	0xbc039f6e	-0.0080336165
30	0x3dedfe29	0.11620743
31	0x3c96fa20	0.018429816
32	0x3c22b109	0.009929904
33	0xbd034800	-0.032051086
34	0xbe00d9a7	-0.12583028
35	0x3d8f3c1c	0.06993887
36	0xbdabaac9	-0.08382184
37	0x3d15a58c	0.03653483
38	0x3d13bd4b	0.036069196
39	0x3cbae660	0.02281493
40	0xbd04c05d	-0.032410014
41	0xbcfdeaf0	-0.030995816
42	0x3e1fa38b	0.1558973
43	0x3c1a2447	0.009408063
44	0x3d355242	0.0442679
45	0x3e304133	0.17212372
46	0x3c3617a6	0.011114037
47	0x3d914e91	0.070950635
48	0x3cdd4c74	0.027013995
49	0xbcec19f4	-0.02882097
50	0xbc8b6ccd	-0.017019654
51	0x3c99347e	0.018701788
52	0x3d800f19	0.0625288
53	0x3cd69836	0.026195627
54	0xbc1a6aeb	-0.009424905
55	0xbd62d748	-0.05538109
56	0x3dceee9a	0.101041034
57	0x3d28ebba	0.04124043
58	0x3abebfeb	0.0014553046
59	0xbd9e4629	-0.07728226
60	0xbe180ec3	-0.14849381
61	0x3d44b23b	0.048021536
62	0xbd490373	-0.049075555
63	0xbd98d294	-0.074620396
64	0xbc9e1365	-0.019296357
65	0xbc941cb3	-0.018080091
66	0x3bc8fb40	0.006133467
67	0x3c66bdf3	0.014083373
68	0x3d13a02c	0.036041424
69	0xbd990039	-0.074707456
70	0x3cf1a418	0.029497191
71	0x3c12db70	0.008963451
72	0xba9d2d7a	-0.0011991702
73	0x3c4bf205	0.012447839
74	0x3da2dd1f	0.07952332
75	0xbb07ffd2	-0.0020751846
76	0x3d2b3f12	0.041808195
77	0x3e0345cd	0.12819596
78	0x3e03d086	0.12872514
79	0x3d7336d0	0.059378445
80	0x3d434130	0.04766959
81	0xbc60f076	-0.013729205
82	0x3d61f614	0.05516632
83	0x3d98ed7f	0.07467174
84	0xbc0d017f	-0.008606314
85	0xbd4fd470	-0.050739706
86	0x3e126516	0.14296374
87	0xbdd2ae91	-0.10287202
88	0xbe1a63bd	-0.1507711
89	0xbc913a81	-0.017728092
90	0xbbcbec16	-0.006223212
91	0xbccb810d	-0.02484181
92	0xbd1ec441	-0.03876138
93	0x3da83bf7	0.082145624
94	0x3ccc791a	0.02496009
95	0xbc96245f	-0.01832789
96	0x3d22b10c	0.039719626
97	0x3d7919d4	0.060815647
98	0xbd2c6310	-0.04208666
99	0xbd213e05	-0.039365787
100	0xbddf762e	-0.10911213
101	0x3d0faf3b	0.035079222
102	0xbdb8436e	-0.08997236
103	0x3d551092	0.052017756
104	0xbde65bed	-0.11248002
105	0xbd86bb7b	-0.06578728
106	0xbde36a71	-0.111042865
107	0xbd9a375f	-0.075300924
108	0xbd72fe6a	-0.05932466
109	0x3d5b2f0b	0.05351166
110	0x3d5622ce	0.052279286
111	0xbd39b184	-0.045335308
112	0xbdc17ddd	-0.09447835
113	0xbdba664c	-0.09101543
114	0xbcde5ca4	-0.027143784
115	0xbc8275bd	-0.015925283
116	0x3d674f5f	0.05647218
117	0xbdbc2628	-0.09186965
118	0xbdb11749	-0.086470194
119	0xbd7213ac	-0.05910079
120	0xbcdd3116	-0.027000945
121	0x3d498623	0.04920019
122	0x3ce139ac	0.02749332
123	0x3b406ce2	0.0029361774
124	0x3cb1c9fb	0.021702757
125	0x3ca2dae7	0.019879771
126	0x3daacdc8	0.08340031
127	0xbad5c115	-0.0016308153
128	0xbdb54ec7	-0.08852916
129	0xbde3a2b9	-0.11115021
130	0xbd6687b9	-0.05628178
131	0x3c3b60ab	0.011436622
132	0xbd3b5af8	-0.04574105
133	0xbd908254	-0.07056108
134	0x3dc84620	0.09779
135	0xbb8770e3	-0.00413333
136	0x3c30dc33	0.010794687
137	0xbcee2d15	-0.029074231
138	0x3d225866	0.039635085
139	0xbafe2de8	-0.0019392343
140	0xbbe207c3	-0.006897898
141	0x3d40b18d	0.047044326
142	0x3d5516d7	0.052023735
143	0xbd6144a8	-0.054997116
144	0x3d0c35f1	0.03423113
145	0x3d833dac	0.06408247
146	0x3d8043f1	0.06262959
147	0xbd1c4b92	-0.038158007
148	0x3d4fc654	0.05072625
149	0x3e0762c3	0.13221268
150	0x3c3e4b56	0.011614641
151	0xbc8a253b	-0.016863456
152	0x3da4ddf1	0.080501445
153	0x3cca3910	0.024685413
154	0x3d95e891	0.07319749
155	0xbd104a9e	-0.03522741
156	0xbccf9a4b	-0.025342127
157	0xbe273c35	-0.16331561
158	0x3da76c26	0.081749246
159	0x3dba73e5	0.091041364
160	0x3d867c93	0.065667294
161	0x3ccba7cd	0.024860287
162	0x3c947b89	0.018125312
163	0xbdc5e16d	-0.09662137
164	0x3d5276ed	0.051382948
165	0xbd91d55e	-0.07120775
166	0xbdcd350a	-0.10019882
167	0xbd639d30	-0.055569828
168	0xbcd092f2	-0.025460694
169	0xbc5800fd	-0.013183829
170	0x3d0340dd	0.03204428
171	0xbdd67fd5	-0.10473601
172	0xbb3790dd	-0.002800993
173	0xbd311720	-0.043234944
174	0x3c42c198	0.011886977
175	0xbd931cbe	-0.071832165
176	0xbd15a573	-0.036534738
177	0x3d92c174	0.071658045
178	0xbd8ba9b8	-0.06819481
179	0x3c81f70c	0.015864871
180	0xbd8f707d	-0.07003877
181	0x3d13e9dd	0.0361117
182	0xbd051092	-0.032486506
183	0xbd5aef09	-0.053450618
184	0x3d633f7e	0.055480473
185	0x3be209da	0.006898147
186	0x3d757aad	0.059931446
187	0xbd1efb4b	-0.03881387
188	0x3d490e72	0.04908604
189	0x3cb6c6d8	0.022311613
190	0xbd557edc	-0.052122936
191	0x3d8242f9	0.0636043
192	0x3c8a1526	0.016855787
193	0x3d10e2d6	0.035372578
194	0x3ca1d4cf	0.019754795
195	0xbe1ec254	-0.15503818
196	0x3d05eb97	0.03269538
197	0xbce40582	-0.027834658
198	0x3d676226	0.056490086
199	0xbc90c421	-0.017671647
200	0xbd14b18a	-0.036302127
201	0x3d3a4a58	0.045481056
202	0x3cbbf1ac	0.022942387
203	0x3c935701	0.017985823
204	0xbd68e608	-0.05686
205	0x3d60fc28	0.054927975
206	0xbd2b9209	-0.041887317
207	0x3d8cbe28	0.06872207
208	0xbd4006f3	-0.046881627
209	0x3c551edb	0.013007845
210	0xbc866534	-0.01640568
211	0x3c51c893	0.012804168
212	0x3df32f3b	0.11874243
213	0xbc4bd91b	-0.012441899
214	0xbca27940	-0.019833207
215	0xbd6eff23	-0.058348786
216	0x3c18bf42	0.009322943
217	0xbda2e52f	-0.079538696
218	0xbdbccf42	-0.09219219
219	0x3b95f8dd	0.004576786
220	0xbd8edadf	-0.0697534
221	0x3d9b8a0b	0.07594689
222	0xbcdd1f5b	-0.02699249
223	0x3d14b1c8	0.036302358
224	0x3cbab069	0.022789197
225	0x3d28cbeb	0.041210096
226	0xbd7e6568	-0.062108427
227	0x3d3cd7a6	0.046104096
228	0xbb5b228a	-0.0033437335
229	0x3d1d7215	0.038438875
230	0xbc69324d	-0.014233184
231	0xbd0a70fc	-0.033799157
232	0xbd229842	-0.039695986
233	0xbb82cf9c	-0.003992034
234	0xbdd6555d	-0.104655005
235	0x3ce669b4	0.028126575
236	0xbc3daceb	-0.011576871
237	0xbd8564f7	-0.06513398
238	0xbc397a62	-0.011320682
239	0xbd9148ce	-0.070939645
240	0x3e1bd9a6	0.15219745
241	0x3d8df878	0.06932157
242	0x3d12c29c	0.035830125
243	0x3dd7f284	0.10544303
244	0x3d8c763d	0.0685849
245	0xbca52976	-0.020161372
246	0x3dccbbc1	0.09996749
247	0x3e1797e2	0.14804032
248	0x3def4a6a	0.11684115
249	0x3c5632e5	0.013073658
250	0xbd2a9926	-0.04164996
251	0x3c173e4c	0.009231161
252	0x3cd26de3	0.025687164
253	0xbca5e868	-0.020252421
254	0x3c0ad9b2	0.008474754
255	0xbc6fdc70	-0.014639959

std.constant8 f4 [64, 64]
0	0xbd82cdce	-0.063869104
1	0x3e084902	0.133091
2	0x3df43a02	0.119251266
3	0xbda3836b	-0.0798405
4	0xbd9e6fe5	-0.07736186
5	0x3d430c33	0.047619056
6	0xbc77a5ac	-0.015115183
7	0x3d21401f	0.03936779
8	0xbd3166fa	-0.043311097
9	0x3d110624	0.035406247
10	0x3c2016f4	0.009771097
11	0xbd820bfd	-0.06349943
12	0xbe060ef5	-0.13091643
13	0x3ca5d566	0.020243358
14	0x3da427a3	0.080153726
15	0x394ab11d	0.00019330201
16	0x3e155343	0.14582543
17	0xbdb0487b	-0.086075746
18	0x3db069a8	0.08613902
19	0xbcc42b11	-0.023946317
20	0xbd8d9e93	-0.06915011
21	0xbd08b923	-0.033379685
22	0xbaad4c71	-0.0013221634
23	0x3e08560c	0.13314074
24	0x3cdc3b7b	0.026883831
25	0x3cbba32e	0.022904959
26	0x3d1705fa	0.036870934
27	0xbc6c6d7b	-0.014430399
28	0x3b736c5a	0.003714344
29	0x3db92cb1	0.09041727
30	0x3d9e05cc	0.077159494
31	0x3d9657a7	0.07340937
32	0xbd0fd899	-0.035118673
33	0x3d5e4014	0.05426033
34	0xbcc69f65	-0.024245927
35	0x3d7d3ba8	0.06182447
36	0xbc8c43f1	-0.01712224
37	0x3d0a6cff	0.033795353
38	0xbde2a9db	-0.110675536
39	0x3d054d42	0.032544382
40	0xbd729229	-0.05922142
41	0xbd4ba592	-0.049718447
42	0xbd0e417c	-0.03473042
43	0x3dd4cc32	0.1039051
44	0xbd8eaf4a	-0.069670275
45	0xba130c62	-0.000560945
46	0xbd093bb7	-0.033504214
47	0x3ca0c1ba	0.019623626
48	0x3aba4c61	0.0014213437
49	0x3d9fc9bb	0.07802149
50	0x3cd16d87	0.025564922
51	0xbb3f6ac0	-0.0029207915
52	0x3c9f205b	0.019424608
53	0x3cd9105c	0.026497059
54	0x3cffc2a9	0.03122075
55	0xbe66ff34	-0.2255829
56	0x3be99817	0.007128726
57	0xbd58618e	-0.05282741
58	0xbcff9af4	-0.031201817
59	0x3ca97128	0.02068384
60	0x3cb07b84	0.021543272
61	0xbca6ae7f	-0.020346878
62	0x3c900512	0.017580543
63	0x3c923842	0.017849091
64	0x3d5e51f3	0.05427737
65	0x3cff8b90	0.031194478
66	0x3c7cf577	0.015439383
67	0xbd03e2c4	-0.032198682
68	0xbd4d9aaf	-0.050196346
69	0xbd202c4d	-0.03910475
70	0xbcb1be9c	-0.021697335
71	0x3cae054a	0.021242756
72	0x3d8319fa	0.06401439
73	0xbde8edf4	-0.11373511
74	0x3d74bb48	0.059748918
75	0x3cd56c18	0.02605252
76	0x3dbcc0d7	0.09216469
77	0xbd2b93e7	-0.041889098
78	0x3dc14fc8	0.09439045
79	0xbd1a95f6	-0.03774067
80	0x3ca26ddd	0.019827778
81	0xbd4aa3da	-0.049472667
82	0xbd8ee1b3	-0.069766425
83	0xbb89d5af	-0.0042063813
84	0x3d900b28	0.07033378
85	0xbd9d5aa3	-0.07683303
86	0xbd378411	-0.044803683
87	0xbdfc9833	-0.12333717
88	0xbce21814	-0.027599372
89	0xbd87e6a5	-0.06635789
90	0x3d54c822	0.051948674
91	0x3d353c43	0.044246923
92	0x3d8c1c4a	0.06841333
93	0xbd6c7e1a	-0.057737447
94	0x3d893137	0.0669884
95	0xbc8fd2b2	-0.017556522
96	0x3c884bcd	0.016637707
97	0x3c8a7439	0.016901122
98	0xbd8a818d	-0.06762991
99	0x3d044449	0.032291684
100	0x3d356383	0.044284355
101	0x3de27a7d	0.11058519
102	0x3dd77139	0.105196424
103	0x3d7749fb	0.060373288
104	0x3c95fb63	0.018308347
105	0xbc6cc987	-0.014452345
106	0xbd1a29fb	-0.037637692
107	0xbd1e122d	-0.038591553
108	0xbcc18584	-0.023623236
109	0xbc731dcb	-0.014838646
110	0x3d8e50c1	0.06948996
111	0xbbf5ffe9	-0.0075073135
112	0x3d3ece38	0.046583384
113	0x3db85c66	0.090019986
114	0xbcbcf689	-0.023066776
115	0x3ba8bcf6	0.005149479
116	0x3d10687e	0.0352559
117	0xbbb18bcf	-0.005418278
118	0x3d3825a2	0.044957764
119	0x3d0af9b9	0.03392956
120	0xbd373261	-0.04472578
121	0xbd943c75	-0.07238094
122	0x3c875fe8	0.016525224
123	0x3deeecf9	0.11666293
124	0x3d39d176	0.045365773
125	0x3ddd79ff	0.108142845
126	0x3db3c720	0.087782145
127	0xbbc52130	-0.006015919
128	0xbc89683c	-0.016773336
129	0x3e179a13	0.14804868
130	0x3d0fad48	0.035077363
131	0x3c7a3e1f	0.0152736
132	0x3df53e1f	0.11974739
133	0x3d6e42b1	0.05816907
134	0xbda5288d	-0.08064375
135	0x3d857f50	0.065184236
136	0xbdc91b3f	-0.0981965
137	0x3d1b8841	0.03797174
138	0xbd55d843	-0.052208196
139	0xbd8da8c8	-0.06916958
140	0x3d6235b1	0.055226985
141	0xbe207445	-0.15669353
142	0x3e199b8a	0.1500074
143	0x3cd46ec2	0.02593172
144	0xbd30cd8e	-0.043164782
145	0xbd9dd235	-0.077061094
146	0xbd298ac3	-0.0413921
147	0x3e33a995	0.17545159
148	0x3d377b71	0.044795457
149	0xbcb2334e	-0.02175298
150	0x3c9a3878	0.018825755
151	0xbc9e7763	-0.019344037
152	0xbcb8be39	-0.022551643
153	0x3d5e524a	0.054277696
154	0xbdbb3e4b	-0.09142741
155	0xbcb7c9aa	-0.022435028
156	0x3d240960	0.040048003
157	0x3d8ca0c7	0.06866603
158	0xbc875afc	-0.016522877
159	0xbb34c023	-0.0027580343
160	0x3cf606d2	0.030032549
161	0xbdf3e034	-0.11907998
162	0xbdaab9c4	-0.08336213
163	0x3cd68c62	0.026189987
164	0xbdc89f12	-0.09795965
165	0xbcf7b129	-0.030235844
166	0xbcf89d7e	-0.030348536
167	0x3c7ea9da	0.015543425
168	0x3cc25e90	0.023726732
169	0xbd30ed84	-0.043195263
170	0xbda3de76	-0.080014154
171	0x3dac83ad	0.08423553
172	0xbd0d023b	-0.034425955
173	0xbd61cf50	-0.05512935
174	0x3a63ff01	0.00086973613
175	0xbbcb8649	-0.0062110764
176	0xbd0f4d64	-0.034985915
177	0x3daf1ecb	0.08550795
178	0xbc95e350	-0.018296868
179	0x3d435818	0.047691435
180	0x3ca98d28	0.020697191
181	0xbe030dff	-0.12798308
182	0xbc02b821	-0.00797847
183	0xbd92e60b	-0.071727835
184	0xbc7b5bc6	-0.015341705
185	0x3d49e00e	0.04928594
186	0xbdc02867	-0.09382706
187	0x3d6fee41	0.058576826
188	0x3d4da8e7	0.050209906
189	0xbcca04a1	-0.02466041
190	0x3d7f7416	0.062366568
191	0xbb6e07cb	-0.0036320563
192	0x3b678709	0.003532829
193	0x3e07da11	0.1326678
194	0xbdd54b6d	-0.10414777
195	0xbdfbb524	-0.12290409
196	0xbdbea296	-0.093083546
197	0xbbfeeb59	-0.0077795205
198	0xbe0c4f58	-0.13702142
199	0xbe05cceb	-0.13066451
200	0xbe2f1ab6	-0.17100033
201	0x3d02fec0	0.03198123
202	0x3e10d0d5	0.14142163
203	0xbda04e57	-0.07827442
204	0x3c86ac78	0.016439661
205	0xbcb38ac6	-0.021916758
206	0x3d66fc9a	0.056393243
207	0x3d7a12c9	0.06105307
208	0x3da2437a	0.079230264
209	0xbd5f217b	-0.05447529
210	0xbc7afa2f	-0.0153184375
211	0x3d16bbfe	0.036800377
212	0xbd9b0181	-0.07568646
213	0x3cae8dbb	0.021307817
214	0x3cce49b9	0.025181638
215	0x3d6691e7	0.056291487
216	0x3db2e4e5	0.087350644
217	0x3d615edf	0.055022117
218	0xbdcb993d	-0.09941337
219	0x3d48d76f	0.04903358
220	0x3c823249	0.015893118
221	0x3e0ddd78	0.13854015
222	0x3e10a4ca	0.14125362
223	0xbc969604	-0.01838208
224	0x3e2d7018	0.16937292
225	0xbce42818	-0.02785115
226	0xbd5a4c11	-0.0532952
227	0x3d2d6020	0.042328
228	0xbdb81420	-0.089882135
229	0xbd37c130	-0.044861972
230	0x3d8e029f	0.06934094
231	0x3dd3880f	0.103286855
232	0x3da8854e	0.08228551
233	0xbe33f9ef	-0.17575811
234	0xbe173374	-0.14765722
235	0xbdd1c5ac	-0.10242781
236	0x3cc29609	0.023753183
237	0xbc86b457	-0.016443415
238	0xbde61988	-0.112353384
239	0x3e2e18d0	0.17001653
240	0x3e488355	0.19581349
241	0x3e1dc50a	0.15407196
242	0xbc7dbd6c	-0.015487056
243	0x3d155e40	0.036466837
244	0xbdd7f52b	-0.10544809
245	0x3de40368	0.11133462
246	0xbde82207	-0.11334615
247	0xbe3fa13c	-0.1871385
248	0xbe089d67	-0.13341294
249	0x3c48d065	0.012256716
250	0xbd6069c8	-0.05478838
251	0x3d75e34d	0.060031224
252	0x3cf55502	0.029947761
253	0xbcfa53b9	-0.0305575
254	0x3cf18368	0.029481605
255	0xbd9ad9f9	-0.07561106

std.constant9 f4 [64]
0	0x3c3836fe	0.01124358
1	0x3a526f77	0.0008027474
2	0x3d733113	0.059372973
3	0x3d9b5b66	0.07585792
4	0x3cc65d3c	0.02421438
5	0xb9a76876	-0.00031930552
6	0x3d037370	0.03209251
7	0x3b82dd57	0.003993671
8	0x3c80079c	0.015628628
9	0x3d5b4daf	0.05354088
10	0x3d0718d7	0.032982673
11	0x3bfe1318	0.007753741
12	0xbb930804	-0.0044870395
13	0x3be1083d	0.006867437
14	0x3bf7b17c	0.0075589996
15	0x3c49556c	0.012288433
16	0x3cb3c3c2	0.02194393
17	0x3d4ceb7f	0.050029274
18	0x3b38967b	0.0028165865
19	0xb99751ee	-0.00028862007
20	0x3c332d5d	0.010936108
21	0x3c603970	0.013685569
22	0x3d7c8da9	0.061658535
23	0x3d116aec	0.03550236
24	0x3d423f79	0.047423813
25	0x3c9b928a	0.018990774
26	0x3c94c197	0.018158717
27	0x3cc4bb49	0.024015086
28	0x3cab659f	0.02092248
29	0x3d2d4d1b	0.04230986
30	0x3c7ab843	0.0153027205
31	0x3cbb6444	0.022874959
32	0x3be86c00	0.0070929527
33	0x3c059df4	0.008155335
34	0x3cf318f8	0.029674992
35	0x3d8a6002	0.06756593
36	0x3d64f9ad	0.055902172
37	0x3d331353	0.0437196
38	0x3c4eaa21	0.012613804
39	0x3c2a385e	0.010389416
40	0x3ab7b179	0.0014014683
41	0x3d4d05d5	0.05005439
42	0x3cef2cf9	0.02919625
43	0x3c849112	0.016182456
44	0x3d1fc10b	0.03900246
45	0x3bcf0d49	0.0063187224
46	0x3ce39798	0.027782246
47	0x3d4f2dec	0.050580904
48	0x3d078b71	0.033091966
49	0x3cae2490	0.021257669
50	0x3d2ef4fd	0.042714108
51	0x3ceca9f7	0.02888964
52	0x3d510e0f	0.051038798
53	0xbaf6a0bc	-0.0018816213
54	0x3c2c2e2e	0.010509057
55	0x3ce6a6b7	0.028155668
56	0x3d72d480	0.059284687
57	0x3b6555c7	0.0034993754
58	0x3db2e98a	0.0873595
59	0x3d08863a	0.033331133
60	0x3b1c48e9	0.0023847169
61	0x3cab2960	0.020893753
62	0x3cb9ca22	0.022679392
63	0x3d2309e8	0.03980437

std.constant10 f4 [64]
0	0x3f80032d	1.0000969
1	0x3f7f84e8	0.99812174
2	0x3f8202e0	1.0157127
3	0x3f77083a	0.9649693
4	0x3f8261b8	1.0186071
5	0x3f7db6a8	0.99106836
6	0x3f8322b3	1.0244964
7	0x3f7fb573	0.99886245
8	0x3f80db36	1.0066898
9	0x3f856bf2	1.0423567
10	0x3f8242c5	1.0176626
11	0x3f80d610	1.0065327
12	0x3f7f8e9f	0.99827
13	0x3f808873	1.0041641
14	0x3f7feec9	0.9997373
15	0x3f7deabb	0.99186295
16	0x3f823f46	1.017556
17	0x3f7e6364	0.9937041
18	0x3f804e98	1.0023985
19	0x3f7e54aa	0.9934794
20	0x3f80cd97	1.0062741
21	0x3f810181	1.0078584
22	0x3f814e9d	1.0102116
23	0x3f8086cd	1.0041138
24	0x3f82a5b1	1.0206815
25	0x3f7ea6f1	0.9947348
26	0x3f8153dc	1.0103717
27	0x3f818f4f	1.0121859
28	0x3f7f7583	0.99788684
29	0x3f86640d	1.0499283
30	0x3f8170df	1.011257
31	0x3f7d199d	0.9886721
32	0x3f80d814	1.0065942
33	0x3f7ff4bf	0.9998283
34	0x3f7ed1bb	0.99538773
35	0x3f867c02	1.0506594
36	0x3f867d20	1.0506935
37	0x3f82ac30	1.0208797
38	0x3f7dd39b	0.9915101
39	0x3f810768	1.0080385
40	0x3f7f23b8	0.9966388
41	0x3f84efa4	1.0385633
42	0x3f824712	1.0177939
43	0x3f810c80	1.008194
44	0x3f7f3030	0.99682903
45	0x3f7fa814	0.9986584
46	0x3f814630	1.0099545
47	0x3f80f4a0	1.0074654
48	0x3f7dcb0a	0.9913794
49	0x3f8206ae	1.0158288
50	0x3f7f1725	0.9964469
51	0x3f7cdcbc	0.98774314
52	0x3f7b9afc	0.9828336
53	0x3f7f4444	0.9971354
54	0x3f802f25	1.0014387
55	0x3f825583	1.0182346
56	0x3f856bd2	1.0423529
57	0x3f8017f6	1.0007312
58	0x3f887093	1.0659355
59	0x3f8306de	1.0236471
60	0x3f7f3daf	0.99703497
61	0x3f811df2	1.0087264
62	0x3f808d60	1.0043144
63	0x3f8476e4	1.0348783

std.constant11 f4 [64]
0	0x3b99ded3	0.004695752
1	0xbaec9e71	-0.001805259
2	0xbb88e2b9	-0.004177418
3	0x3b93dd03	0.0045124306
4	0xbbb97bdf	-0.0056605185
5	0xba43b8c3	-0.00074661913
6	0xbc17beb3	-0.009261775
7	0xbac5d6fb	-0.0015093976
8	0xbba30b0b	-0.0049756817
9	0x3c03e22c	0.008049529
10	0x3be75ceb	0.007060637
11	0xbb954908	-0.004555825
12	0x38e5ccae	0.000109576955
13	0xbb308c7e	-0.0026939209
14	0x3b6e173f	0.0036329774
15	0xbb172075	-0.0023060117
16	0x3c06d9ce	0.00823064
17	0xbb36c1c0	-0.002788648
18	0x3a61c767	0.0008612782
19	0x3b342daf	0.002749305
20	0xbb7cc443	-0.003856913
21	0xbb87d50a	-0.0041452693
22	0x3b84b801	0.0040502553
23	0x3b8a0709	0.0042122644
24	0x3bd80933	0.0065928935
25	0xb833d4c5	-4.2875083e-05
26	0xbb854685	-0.0040672445
27	0x3bfc8d26	0.007707256
28	0xbb0fb303	-0.0021926768
29	0x3c255fee	0.010093672
30	0x3b97aee3	0.0046290024
31	0xbb84d1ac	-0.004053315
32	0x3899f7fe	7.341801e-05
33	0xbab7a925	-0.0014012201
34	0xbb1b88a6	-0.0023732572
35	0x3b973643	0.004614623
36	0xbbed1b2d	-0.0072359056
37	0xbbe27251	-0.0069106002
38	0x3b37d468	0.0028050188
39	0x3b7239b0	0.0036960654
40	0xbbba78fa	-0.005690691
41	0xbc177db5	-0.0092462795
42	0xbbe7bb11	-0.0070718606
43	0x3c0c9963	0.008581492
44	0xbb5d0cc4	-0.0033729533
45	0xbaef451a	-0.0018254847
46	0xbbc239b3	-0.0059272884
47	0x3b92202f	0.004459403
48	0x3bb557ab	0.0055341325
49	0x3b52947d	0.0032131963
50	0xbb89b937	-0.0042029875
51	0x39c5e76c	0.0003774719
52	0x3ad03027	0.0015883491
53	0xbb00aaac	-0.0019632978
54	0xbb4cd894	-0.003125702
55	0xbc046d57	-0.008082709
56	0xbc8dab90	-0.017293721
57	0x3b4dc3f1	0.0031397308
58	0xbcb6cb67	-0.022313787
59	0x3c118308	0.008881338
60	0xbb1fbf6e	-0.0024375576
61	0xbbb60b5d	-0.005555554
62	0x3c1ee455	0.009697993
63	0xbbd3be20	-0.0064618737

std.constant12 f4 [64]
0	0x3c14eec6	0.009090131
1	0xb906d0d0	-0.00012857025
2	0x3d4d2ead	0.05009334
3	0x3d9a228c	0.075261205
4	0x3c9142a5	0.017731974
5	0xb97be68e	-0.00024023114
6	0x3cbddc0b	0.023176214
7	0x3b6031b6	0.0034209318
8	0x3c4f2b9f	0.012644677
9	0x3d1bc0c2	0.038025625
10	0x3c91a72c	0.01777991
11	0x3b95f6e4	0.004576551
12	0xbbb1c3ac	-0.0054249372
13	0x3b8cbe17	0.0042951214
14	0x3b9f351b	0.0048586256
15	0x3c32f710	0.010923162
16	0x3c6f7c68	0.014617063
17	0x3d4149eb	0.047189634
18	0xba13304e	-0.0005614803
19	0xb9be5f7f	-0.00036310774
20	0x3c010866	0.0078755375
21	0x3c3d3587	0.011548406
22	0x3d57b0bb	0.052658778
23	0x3bf10161	0.0073549007
24	0x3d1784b2	0.036991782
25	0x3c00963c	0.007848319
26	0x3c612f60	0.013744205
27	0x3c909836	0.017650705
28	0x3c9af218	0.018914267
29	0x3d1c0896	0.038094126
30	0x3c59c0d4	0.013290603
31	0x3c8b7141	0.017021777
32	0x3bd4eff6	0.006498332
33	0x3bd0ff11	0.0063780625
34	0x3c4b0a60	0.01239261
35	0x3d3cb800	0.046073914
36	0x3d2d0c82	0.042248257
37	0x3d1255ba	0.035726286
38	0x3bf2cec8	0.007409904
39	0x3c27d6b6	0.010244062
40	0x3adbe721	0.0016777256
41	0x3d08db9f	0.033412572
42	0x3cc2c586	0.023775827
43	0x3c4a4ee0	0.012347907
44	0x3d229eb0	0.039702117
45	0x3ba411f4	0.005007023
46	0x3bd85d48	0.006602917
47	0x3d241c7c	0.040066227
48	0x3d0285ba	0.031865813
49	0x3c5af2a0	0.01336351
50	0x3d22f13d	0.039780844
51	0x3ccb2203	0.024796491
52	0x3d520467	0.05127373
53	0xbb06991c	-0.0020538038
54	0x3c2d65de	0.010583369
55	0x3cc5055a	0.024050403
56	0x3d1d1e9d	0.038359273
57	0x3b3939a1	0.002826311
58	0x3d96b565	0.07358817
59	0x3c53631d	0.012902048
60	0x3a85b79f	0.0010201818
61	0x3ca0593d	0.019573802
62	0x3cadc2b1	0.021211
63	0x3cea265f	0.02858275

std.constant13 f4 [64, 256]
0	0xbc69eeb0	-0.014278099
1	0xbda0a3ba	-0.07843728
2	0x3d499468	0.049213797
3	0xbdb65c68	-0.08904344
4	0xbc4cde7b	-0.012504215
5	0xbcb94d5a	-0.022619892
6	0x3d6418ff	0.0556879
7	0x3da49883	0.08036902
8	0x3cd0493f	0.025425551
9	0x3d20251d	0.039097894
10	0x3d6eb283	0.05827571
11	0xbc8e4d13	-0.017370736
12	0xbdef4416	-0.11682908
13	0x3d3c2942	0.045937784
14	0x3da6a5d6	0.081370994
15	0xbd9913c5	-0.07474474
16	0x3d10f48b	0.035389464
17	0xbd9eb08a	-0.07748516
18	0x3ad7f134	0.0016475082
19	0xbc340048	-0.010986395
20	0xbb474a1f	-0.003040917
21	0xbdaa8f6d	-0.083281375
22	0xbde7c386	-0.1131659
23	0xbd3bf97e	-0.04589223
24	0xbc595830	-0.013265654
25	0x3dae835d	0.08521149
26	0x3d856f74	0.065153986
27	0xbddeb07b	-0.10873505
28	0x3cd893b6	0.026437622
29	0x3cf496ad	0.029857004
30	0xbdb0308c	-0.086030096
31	0x3dbfd4e7	0.0936678
32	0xbdffb586	-0.12485795
33	0xbdb928de	-0.09040998
34	0xbc2e30a2	-0.010631712
35	0xbc6b041f	-0.014344244
36	0xbd58c959	-0.052926395
37	0x3d00129e	0.031267755
38	0x3d8a9b58	0.06767911
39	0x3d3adfc6	0.045623563
40	0xbde7a0fa	-0.11310001
41	0xbaa22af9	-0.0012372426
42	0x3d67d78e	0.056602053
43	0xbc8b7e46	-0.017027985
44	0xbc45026e	-0.012024505
45	0x3db6190d	0.08891497
46	0x3c2cd637	0.01054912
47	0x3d871250	0.0659529
48	0x3d7588d7	0.059944954
49	0x3cf71f7d	0.030166382
50	0x3d3ad2a2	0.04561103
51	0x3d67e78b	0.0566173
52	0xbd08dde1	-0.033414725
53	0xbdd8ad35	-0.105799116
54	0x3db59b4b	0.088675104
55	0xbc976dc9	-0.018484967
56	0x3d0b736d	0.034045625
57	0xbcc12ea8	-0.023581818
58	0x3cc3f1b4	0.023918964
59	0xbc96828a	-0.018372793
60	0x3d32a899	0.04361782
61	0x3c02feae	0.007995291
62	0x3d30193c	0.042992815
63	0x3d04dd3f	0.03243756
64	0xbe0b2025	-0.13586481
65	0x3cebf094	0.02880124
66	0xbdaf233a	-0.08551641
67	0x3d729170	0.05922073
68	0x3d069e9c	0.032866105
69	0x3d928fbe	0.07156323
70	0x3d4037e4	0.0469283
71	0xbd369912	-0.044579573
72	0xbe0baef2	-0.13640955
73	0xbdbac6c0	-0.0911994
74	0xbacadcba	-0.0015477159
75	0xbcba79b0	-0.022763103
76	0xbda469b4	-0.08027974
77	0x3be1186e	0.0068693673
78	0xbe090533	-0.1338089
79	0xbd823b9e	-0.06359027
80	0xbdcf923c	-0.10135314
81	0xbd96dc85	-0.073662795
82	0xbb2dab8a	-0.002649995
83	0x3d34347b	0.04399536
84	0x3d6a83a5	0.057254452
85	0x3dea9e2a	0.11455949
86	0x3bca7fdf	0.006179794
87	0x3c036771	0.008020268
88	0x3da97cf0	0.08275783
89	0x3d80bcbd	0.06285999
90	0xbde691ed	-0.11258302
91	0x3dc8eb7a	0.098105386
92	0x3da62c33	0.08113899
93	0x3dd5cd49	0.10439546
94	0xbd2e88be	-0.042610876
95	0x3d7bfc46	0.061519884
96	0xbbd06fed	-0.006360999
97	0xbda69609	-0.08134086
98	0xbdc7e1fa	-0.097598985
99	0xbc4b217c	-0.01239812
100	0x3cc231f4	0.02370546
101	0xbc80def2	-0.015731309
102	0x3d0b21ec	0.033967897
103	0x3d1fef91	0.039046828
104	0xbd4e9bbe	-0.050441496
105	0xbdc71a19	-0.097217746
106	0xbdb6477a	-0.08900352
107	0x3ca8038e	0.020509508
108	0xbdb81a3a	-0.08989377
109	0x3d867781	0.06565762
110	0x3bc4b5cd	0.0060031177
111	0xbdb917a9	-0.09037716
112	0xbb4362c5	-0.002981351
113	0x3db1c8d3	0.08680882
114	0xbe00ec93	-0.12590246
115	0xbba48a8d	-0.0050213994
116	0xbd6701f3	-0.056398343
117	0x3ce85259	0.028359579
118	0x3ce4f342	0.027948026
119	0xbd28e115	-0.04123028
120	0x3d4b3988	0.049615413
121	0xbba8cec7	-0.005151603
122	0x3c912ae0	0.01772064
123	0x3d01101f	0.031509515
124	0xbdcb9c95	-0.09941975
125	0x3db3a10b	0.08770951
126	0x3d4b9e42	0.049711473
127	0xbb91411e	-0.0044328114
128	0x3d1704a5	0.036869664
129	0x3d67e8c2	0.05661846
130	0xbc48fcf4	-0.01226734
131	0xbdf350ec	-0.11880669
132	0x3dc995ff	0.098430626
133	0xbc52662a	-0.012841741
134	0x3d06782a	0.03282944
135	0xbd9cea04	-0.076618224
136	0x3c1cd196	0.009571454
137	0xbd72f4a2	-0.05931533
138	0x3ca2d1d3	0.019875443
139	0xbdefeca5	-0.11715058
140	0x3ddc664c	0.10761699
141	0xbd01ffa2	-0.03173793
142	0x3d789689	0.060690437
143	0x3c084327	0.008316792
144	0x3d6944df	0.056950446
145	0xbdedbd3c	-0.11608359
146	0xbc5e201b	-0.013557459
147	0x3d560919	0.05225477
148	0xbd90d421	-0.070717104
149	0x3d6839b2	0.056695648
150	0x3dd035a6	0.101664826
151	0xbd2996aa	-0.04140345
152	0xbd9a6c05	-0.07540134
153	0x3df291e1	0.118442304
154	0xbdc790b1	-0.097443946
155	0x3db8ea9e	0.09029125
156	0xbc0ddddc	-0.008658852
157	0x3b066609	0.0020507595
158	0x3ba89d10	0.0051456764
159	0xbdbd6eae	-0.09249626
160	0xbce9bc05	-0.028532038
161	0x3da9bf7d	0.082884766
162	0x3d4f66aa	0.050635017
163	0x3c66e57c	0.014092799
164	0x3d7a552b	0.06111638
165	0x3c834f5a	0.016029049
166	0xbc5210af	-0.0128213605
167	0x3c5f70d8	0.013637744
168	0x3c9c7b22	0.019101683
169	0xbd2af95c	-0.041741714
170	0x3c2759a4	0.010214243
171	0x3cede1b7	0.029038293
172	0x3d9f0ca1	0.07766081
173	0xbc608e6a	-0.013705829
174	0x3de22656	0.11042468
175	0x3d303936	0.04302331
176	0x3d72422d	0.05914514
177	0x3cb484b5	0.022035936
178	0xbda03880	-0.078232765
179	0x3d7188de	0.058968417
180	0xbdc3630a	-0.095403746
181	0x3d75924d	0.059953976
182	0xbd905a1c	-0.07048437
183	0xbd56486c	-0.05231516
184	0x3de24e5a	0.110501006
185	0x3b9377dc	0.0045003723
186	0x3d04a79b	0.032386404
187	0xbcbda1e0	-0.023148477
188	0x3de62fec	0.11239609
189	0x3d625f08	0.05526641
190	0xbdace4e8	-0.08442098
191	0xbcad8d37	-0.0211855
192	0x3bc38a4e	0.005967415
193	0xbd86f9b1	-0.065905936
194	0x3d489410	0.04896933
195	0x3d82db6c	0.06389508
196	0xbd83c8b6	-0.06434767
197	0x3d79d41b	0.060993295
198	0xbdc6eb01	-0.09712792
199	0x3d653104	0.055954948
200	0x3d249a28	0.040186077
201	0x3c3bd60a	0.011464605
202	0x3cf34cd4	0.02969972
203	0x3d6236a5	0.055227894
204	0x3c2173ff	0.009854316
205	0xbd6e52c6	-0.058184408
206	0x3d5f56cb	0.05452613
207	0x3c21b1f8	0.009869091
208	0xbdc0e146	-0.094179675
209	0xbd62af5b	-0.055343013
210	0x3c50c163	0.0127414195
211	0x3dc060bc	0.093934506
212	0xbd619e49	-0.055082593
213	0x3d7ff150	0.062485993
214	0x3da70532	0.08155288
215	0x3d66a212	0.056306906
216	0x3dc755ed	0.09733186
217	0x3d1124f1	0.03543562
218	0xbdc45143	-0.09585812
219	0x3cea88bf	0.028629659
220	0xbdcbfe1b	-0.09960576
221	0xbd3af04c	-0.04563932
222	0x3dddb71d	0.10825942
223	0xbc636364	-0.013878677
224	0xbd1b23bb	-0.037875872
225	0x3dacb9ea	0.08433898
226	0x3da03d21	0.078241594
227	0xbd465bb9	-0.048427317
228	0x3d038be5	0.032115836
229	0x3b3bc758	0.0028652754
230	0x3c74d42f	0.014943167
231	0x3b4f7ada	0.0031658919
232	0x3ce8ac8c	0.02840259
233	0x3df6266a	0.12019046
234	0xbca76b37	-0.020436866
235	0xbcbffd25	-0.023436138
236	0x3dac2bdb	0.08406802
237	0xbd622d6d	-0.055219103
238	0xbd7869af	-0.060647663
239	0xbd0d3c48	-0.034481317
240	0xbdc8ee1f	-0.09811043
241	0xbccd551f	-0.025065003
242	0xbdaa6067	-0.083191685
243	0xbdf78a81	-0.120869644
244	0x3dd6e1a4	0.10492256
245	0xbd6dd057	-0.058060016
246	0xbc01031c	-0.0078742765
247	0x3c8780b9	0.016540872
248	0x3d463816	0.04839333
249	0xbd9293c4	-0.0715709
250	0xbcaca828	-0.021076277
251	0x3d93af9b	0.072112285
252	0x3dd20932	0.1025566
253	0xbcdf27f4	-0.02724073
254	0x3df3956b	0.118937336
255	0x3dac3b28	0.08409721
