app/src/main/ml/word_seg_model.tflite (tflite, 965436 bytes, 52 tensors)

embedding/embeddings f4 [114, 256]
0.042106498 0.02260336 0.026269864 0.0024761334 -0.014678657 0.0005828142 0.028629053 -0.00019634888
0.0054522157 -0.02220732 0.0152213015 -0.0024333969 -0.046190895 0.017753307 0.024777677 -0.01947086
-0.016065527 0.005839683 -0.021993577 0.026988912 0.0041740052 -0.012704693 -0.014751505 0.032735754
-0.036770366 -0.02639835 0.03932252 0.028186593 0.028513681 0.009898424 0.044081155 -0.017609932
-0.016326904 0.039331328 -0.045512296 0.016780328 -0.029874146 -0.009466149 0.02979697 -0.020453203
-0.0062422156 -0.012801386 0.016067516 0.042638887 0.033003245 -0.025962925 -0.017722107 -0.026210308
-0.023835933 0.043736044 -0.006833352 0.028685216 0.027504656 0.041622017 0.017802384 -0.04292803
0.02885976 0.007300306 0.031209495 -0.010979019 0.02419914 0.024463464 -0.047655117 -0.017432667
-0.020586932 -0.015547145 0.014608059 0.043416474 0.03204644 0.013541091 0.04217161 0.028520528
0.008922718 -0.038132668 -0.009735573 -0.044896424 -0.0427655 0.024515774 0.025060628 0.018479835
0.022848617 0.012012899 -0.034849726 0.028274205 -0.00022907183 0.026317302 -0.04110075 0.013797555
0.0049945116 0.03364912 -0.04149977 -0.018086482 0.030674588 -0.039341114 0.025559042 -0.029605627
0.049148727 0.001914788 -0.048361506 0.018289637 0.009157479 0.04708085 -0.011596881 0.003037177
0.049375962 -0.024284756 0.012278236 -0.0016873479 0.029279914 0.021968175 0.03607321 0.021545675
-0.008247875 0.00149877 -0.010076761 0.027625386 0.029929314 0.025270138 0.011800207 0.0004952438
0.018797342 0.038540486 0.036370825 -0.0015288815 0.046097446 0.029420342 -0.007050194 -0.048347484
0.004963994 0.031934086 -0.042977106 0.0067571774 0.03973103 0.004247986 -0.048083045 0.026382994
-0.037663233 -0.028491188 -0.0017186627 -0.028177822 -0.04094348 0.04347987 -0.019586945 0.03498066
0.033596847 -0.015838671 0.0070595853 -0.03247962 -0.002783239 -0.014050137 -0.036630798 0.040660176
0.03851736 0.019024018 -0.049082972 -0.036292136 -0.0014435537 -0.043961585 0.007801734 -0.0025581233
0.016899694 -0.017190717 0.008600734 0.019896176 -0.002428569 -0.035108317 0.0028626323 -0.0057023764
-0.021574259 0.01227038 0.037655953 -0.035425343 -0.016550839 -0.04999969 -0.025662387 -0.03803567
-0.018718112 0.02948438 0.0008962862 -0.016852975 0.03019109 0.0033562556 -0.0408203 -0.011769902
-0.02859348 -0.03957347 -0.038808644 -0.029117538 0.04498515 -0.026238322 0.01005552 0.045366276
-0.0023563504 -0.034145735 -0.020106018 0.049946178 0.00024014711 0.04542074 -0.030516004 -0.04835255
-0.011431634 -0.0135783665 0.043007363 0.0024657026 0.040520217 -0.003103245 -0.0270617 0.04257119
0.012404252 -0.022877216 0.021737147 0.04546353 0.010399234 -0.039209045 0.035504196 0.011660885
-0.02157197 0.025036823 0.0336628 -0.036639176 -0.027766705 -0.019201303 0.04577403 -0.0012516379
0.01885892 0.014429677 0.045969117 0.0015385263 0.008374631 0.022896651 0.03244913 0.03682809
-0.013001837 0.02679472 -0.02326237 0.007204555 -0.0016880147 -0.04861256 0.025099646 -0.041645717
0.0050706044 0.014066424 -0.029082512 0.00637722 -0.0059018508 -0.030799115 -0.0052367225 -0.026945138
0.046372365 0.03654481 0.008178234 0.018990602 0.030482817 0.033894394 -0.039794076 0.028414559
00000000: dd77 2c3d ae2a b93c e633 d73c a046 223b
00000010: c07e 70bc 00c8 183a 7a87 ea3c 00e3 4db9
00000020: 80a8 b23b 20ec b5bc c462 793c a079 1fbb
00000030: aa32 3dbd 626f 913c 8efa ca3c 5a81 9fbc
00000040: da9b 83bc d05a bf3b e02b b4bc da17 dd3c
00000050: 18c6 883b 5827 50bc 4cb0 71bc ed15 063d
00000060: 869c 16bd 5a41 d8bc a710 213d 92e7 e63c
00000070: 8695 e93c 002d 223c 718e 343d b442 90bc
00000080: 00c0 85bc e319 213d 1a6b 3abd e676 893c
00000090: a0ba f4bc e817 1bbc c618 f43c 7a8d a7bc
000000a0: 808b ccbb e8bc 51bc 06a0 833c 1da6 2e3d
000000b0: 692e 073d 33b0 d4bc f42d 91bc 00b7 d6bc
000000c0: 9343 c3bc 9124 333d 50ea dfbb 42fd ea3c
000000d0: 7251 e13c d97b 2a3d 4ed6 913c 4dd5 2fbd
000000e0: 4e6b ec3c 6837 ef3b 0eab ff3c 58e1 33bc
000000f0: 463d c63c 9a67 c83c 0332 43bd f4ce 8ebc
00000100: eda5 a8bc 74b9 7ebc a456 6f3c 79d5 313d
00000110: 2143 033d 74db 5d3c 23bc 2c3d e2a3 e93c
00000120: 9830 123c 0031 1cbd f481 1fbc 50e5 37bd
00000130: e02a 2fbd 4ed5 c83c f24b cd3c 0663 973c
00000140: 062d bb3c c0d1 443c 96be 0ebd 4e9f e73c
00000150: 0033 70b9 6297 d73c 4359 28bd 240f 623c
00000160: 00a9 a33b a9d3 093d aafb 29bd 1a2a 94bc
00000170: 4649 fb3c 2624 21bd 3261 d13c 8087 f2bc
00000180: 2d50 493d a0f9 fa3a b716 46bd 26d4 953c
00000190: 4009 163c d9d7 403d d800 3ebc 600b 473b
000001a0: 733e 4a3d d3f0 c6bc a82a 493c 002a ddba
000001b0: 6edc ef3c 9af6 b33c 81c1 133d 8e80 b03c
000001c0: 1822 07bc 6072 c43a 0019 25bc a24e e23c
000001d0: 522e f53c 5203 cf3c a855 413c 40d3 013a
000001e0: e2fc 993c a1dc 1d3d 93f9 143d c064 c8ba
000001f0: add0 3c3d ee02 f13c 5005 e7bb 0308 46bd
00000200: 00a9 a23b 51cd 023d c308 30bd 506b dd3b
00000210: 01bd 223d b032 8b3b baf2 44bd 2621 d83c
00000220: c344 1abd 5a66 e9bc c044 e1ba 2dd5 e6bc
00000230: 5ab4 27bd f317 323d cd74 a0bc e147 0f3d
00000240: d99c 093d 1ac0 81bc 1854 e73b 5a09 05bd
00000250: 0067 36bb 8c32 66bc 2d0a 16bd 498b 263d
00000260: 61c4 1d3d 42d8 9b3c 3a0b 49bd 10a7 14bd
00000270: a035 bdba 1011 34bd b0a5 ff3b 30a6 27bb
00000280: 3a71 8a3c 8cd3 8cbc 18ea 0c3c 4efd a23c
00000290: a028 1fbb bdcd 0fbd 009b 3b3b 00db babb
000002a0: 80bc b0bc b409 493c 213d 1a3d 2a1a 11bd
000002b0: a095 87bc 7acc 4cbd ed39 d2bc 4acb 1bbd
000002c0: ba56 99bc 3a89 f13c c0f4 6a3a 400f 8abc
000002d0: 4e53 f73c a0f4 5b3b 3033 27bd 8cd6 40bc
000002e0: e03c eabc ca17 22bd d0f5 1ebd e787 eebc
000002f0: 5942 383d c0f1 d6bc e8bf 243c fdd1 393d
00000300: 006d 1abb 66dc 0bbd 60b5 a4bc 5d94 4c3d
00000310: 00d0 7b39 190b 3a3d b3fc f9bc 530d 46bd
00000320: c04b 3bbc cc77 5ebc 7d28 303d a097 213b
00000330: 87f8 253d d05f 4bbb 80b0 ddbc 215f 2e3d
00000340: 343b 4b3c 0069 bbbc 1a12 b23c f737 3a3d
00000350: 8c61 2a3c aa99 20bd d96c 113d 4c0d 3f3c
00000360: b3b7 b0bc 061a cd3c 01e2 093d f612 16bd
00000370: 0077 e3bc 0d4c 9dbc 8d7d 3b3d 000e a4ba
00000380: 067e 9a3c 746a 6c3c 1d4a 3c3d 60a8 c93a
00000390: c035 093c c291 bb3c 61e9 043d 0dd9 163d
000003a0: a805 55bc 9a80 db3c ba90 bebc 3014 ec3b
000003b0: 6040 ddba f71d 47bd c69d cd3c b394 2abd
000003c0: 5027 a63b dc76 663c 733e eebc 00f8 d03b
000003d0: 5064 c1bb 6d4e fcbc d098 abbb 0dbc dcbc
000003e0: f3f0 3d3d 03b0 153d 00fe 053c 2e92 9b3c
000003f0: 1ab7 f93c d9d4 0a3d 1dff 22bd a6c5 e83c

dense/bias f4 [64]
8.9040506e-05 -0.010942131 -0.0004553174 -0.00056629954 -0.0041774283 0.0045141955 -0.0020354015 0.0364243
-0.0099550085 -0.0011524057 0.039722905 -0.010083497 0.0063588023 0.018977823 -0.00060132024 0.009339158
-0.00077483634 0.011247453 -0.0004262075 0.00025155782 0.00025347524 0.00025480828 -0.007692419 0.004869444
0.011055316 -0.0014987225 0.035904966 -0.011380032 0.009618475 0.006887755 -0.010338507 -0.0020202366
0.01319154 0.0020607095 -0.01629203 -0.00556388 -0.015211879 -0.0006725601 0.019352218 -0.0148586435
-0.009404588 -0.014751638 -0.00074135506 -0.0050657536 -0.0007939094 -0.00991982 -0.0025126373 -0.002432611
0.002678237 -0.0053030173 0.0089234505 -0.007184347 0.0004647739 0.0044030063 0.0033329665 0.0017152822
0.018792566 -0.005854135 -0.00060051394 0.04151295 0.0044004205 0.008974464 -0.0026303886 -0.023515344
00000000: 42bb ba38 a046 33bc abb7 eeb9 b873 14ba
00000010: cfe2 88bb d1eb 933b 5f64 05bb a631 153d
00000020: 551a 23bc 520c 97ba 7cb4 223d 4035 25bc
00000030: 805d d03b 6177 9b3c eba1 1dba 4503 193c
00000040: 631e 4bba 3d47 383c 9a74 dfb9 85e3 8339
00000050: dfe4 8439 ca97 8539 b010 fcbb db8f 9f3b
00000060: 5b21 353c c870 c4ba 1611 133d 5073 3abc
00000070: cf96 1d3c adb2 e13b d762 29bc f265 04bb
00000080: 5421 583c f80c 073b dd76 85bc 3551 b6bb
00000090: 3f3b 79bc bf4e 30ba 8b88 9e3c ab71 73bc
000000a0: b315 1abc dbb0 71bc 7f57 42ba 9ffe a5bb
000000b0: 5c1e 50ba be86 22bc 0fab 24bb 716c 1fbb
000000c0: 5c85 2f3b efc4 adbb aa33 123c ac6a ebbb
000000d0: e6ac f339 1847 903b e66d 5a3b 52d3 e03a
000000e0: def2 993c 0bd4 bfbb cf6b 1dba 7c09 2a3d
000000f0: 6731 903b a109 133c 9962 2cbb 40a3 c0bc

std.constant5 f4 [32, 32]
0.16385105 -0.077239156 0.06470273 0.14770018 0.054390345 -0.073073365 0.05882889 0.079633355
-0.11117642 0.05474125 0.0037284158 -0.095415555 -0.009914383 -0.049569365 -0.20076019 0.100029044
-0.035487674 0.007394498 0.002558606 -0.015087489 0.014484483 0.19102612 0.015186785 0.21615069
-0.23285969 -0.03500073 -0.09989717 -0.079502605 0.10762028 -0.07521824 -0.18526848 -0.052417986
0.05622753 -0.10465617 0.11292024 -0.107763894 -0.011648452 -0.12744342 0.061735563 0.049206704
0.07580019 0.041316655 -0.0245747 0.13251294 0.05865549 -0.04827132 0.03400493 -0.1283324
0.003563815 -0.021185583 -0.10974796 -0.015908925 0.09597848 0.108354375 -0.06679095 0.09724693
0.12746508 -0.11504805 -0.12775591 0.06852603 -0.10453952 -0.06474578 0.008154375 -0.039185252
-0.12717095 0.030577565 0.12370684 0.11568422 0.02262307 -0.075380094 -0.015938852 0.013970324
-0.019774364 0.10951689 -0.07838889 0.010095502 -0.0037690108 0.079144955 0.24244958 -0.1391771
0.053162437 0.0837549 0.22634304 -0.108071014 0.05423166 -0.12086774 0.13748284 0.025961611
0.0882995 -0.039218385 -0.003460648 0.013756202 0.05613095 -0.028218728 -0.019686962 0.1955202
-0.0251982 -0.025816036 -0.003901458 -0.03274035 0.13575251 -0.00985658 -0.044922408 0.1550084
-0.19315833 -0.014979518 -0.014925581 -0.06822531 0.086296655 0.121259674 -0.07484416 0.05855595
-0.024234474 0.08567911 -0.05327161 -0.07012574 -0.1318846 -0.095193945 0.09117482 0.06025111
0.027611908 -0.017889626 -0.08223638 -0.0403368 -0.07685381 0.0134211 0.05854221 0.027819356
-0.21055678 0.104292035 0.25384173 0.12745401 -0.080524385 0.18804921 -0.0349062 0.12443487
-0.00511117 -0.031205453 0.06706426 -0.07942967 -0.060410295 0.070546225 0.14218561 0.081988275
-0.032918498 0.12687303 0.044454295 -0.019459333 0.07951378 0.014684614 0.1211432 0.10184771
-0.0251787 0.12545913 -0.122731365 -0.22513999 0.04565695 -0.10357453 0.05331172 -0.07588017
-0.013947063 -0.053286884 0.014209347 0.0497872 -0.025571005 -0.05318659 -0.0063163294 0.09020986
-0.049644154 0.17305283 0.01599675 -0.03436542 0.0030851138 -0.15004313 -0.12843087 -0.08075789
0.095488116 -0.024738504 -0.12196361 0.039749295 -0.13390255 -0.088299125 -0.087461926 -0.041645013
0.0033331052 -0.12878622 0.07948908 0.119814225 -0.07364772 0.116522014 -0.064365655 0.05990213
0.21061891 -0.061563313 -0.035097077 -0.032973845 -0.07437437 0.07049447 0.09702486 0.053417724
0.07995422 0.10906856 -0.08604134 0.068763606 0.129162 -0.01012925 0.100204945 0.035082
-0.14062269 0.2498277 -0.011829182 0.08573839 0.0023924366 0.12865376 -0.1415141 0.012038215
0.0683587 -0.031217294 -0.05800118 -0.023837999 0.079096735 0.16251364 -0.054431215 -0.05768656
-0.01881487 -0.058029138 0.066453084 -0.020613361 -0.09083224 0.06520434 0.009864387 -0.04059925
0.04377439 0.07960121 -0.076625146 0.17769787 -0.02188106 -0.08750678 -0.038132574 -0.06959682
-0.056499913 -0.164702 -0.22471784 -0.09196749 -0.05779695 0.019497497 0.046008743 -0.05003366
0.10072022 0.031020418 -0.028589934 -0.047883973 0.0032314688 -0.045982447 0.072564945 -0.08097124
00000000: 92c8 273e 902f 9ebd dd82 843d b73e 173e
00000010: 69c8 5e3d 7da7 95bd 90f6 703d d016 a33d
00000020: 76b0 e3bd 5c38 603d 7058 743b 3b69 c3bd
00000030: f06f 22bc 3f09 4bbd 1494 4dbe 07dc cc3d
00000040: 865b 11bd 8c4d f23b 49ae 273b 8431 77bc
00000050: 5350 6d3c 5a9c 433e fed1 783c 9b56 5d3e
00000060: c572 6ebe ed5c 0fbd e396 ccbd 43d2 a2bd
00000070: 0568 dc3d 050c 9abd 05b7 3dbe 3eb4 56bd
00000080: d74e 663d f955 d6bd ba42 e73d 51b3 dcbd
00000090: 26d9 3ebc 8780 02be 6ede 7c3d f88c 493d
000000a0: 213d 9b3d a73b 293d e250 c9bc 79b1 073e
000000b0: bd40 703d 26b8 45bd c148 0b3d 9269 03be
000000c0: e58e 693b 638d adbc 8ac3 e0bd 6f53 82bc
000000d0: 5e90 c43d e6e8 dd3d b2c9 88bd 6629 c73d
000000e0: 3586 023e 509e ebbd 72d2 02be 6057 8c3d
000000f0: d118 d6bd 6f99 84bd ed99 053c b780 20bd
00000100: 1a39 02be cd7d fa3c 035a fd3d d9eb ec3d
00000110: 0454 b93c e160 9abd 3292 82bc c9e3 643c
00000120: d9fd a1bc 644a e03d 5b8a a0bd 9b67 253c
00000130: 8201 77bb c016 a23d b444 783e 7184 0ebe
00000140: dbc0 593d b087 ab3d 78c6 673e 5654 ddbd
00000150: 0422 5e3d 8189 f7bd 4dc8 0c3e 72ad d43c
00000160: 5ed6 b43d 75a3 20bd 0acc 62bb b161 613c
00000170: 91e9 653d f62a e7bc 8d46 a1bc 7336 483e
00000180: 756c cebc 277c d3bc 9baf 7fbb bf1a 06bd
00000190: b502 0b3e 7e7d 21bc 8f00 38bd 86ba 1e3e
000001a0: 4ccb 45be a76c 75bc 6d8a 74bc b6b9 8bbd
000001b0: 4dbc b03d fe56 f83d e547 99bd 5dd8 6f3d
000001c0: 6087 c6bc 8778 af3d 5533 5abd 159e 8fbd
000001d0: c20c 07be 0bf5 c2bd ddb9 ba3d dec9 763d
000001e0: 5e32 e23c 448d 92bc 8c6b a8bd 3338 25bd
000001f0: 8865 9dbd 2ce4 5b3c f5c9 6f3d 6be5 e33c
00000200: 329c 57be 1097 d53d 8bf7 813e 4e83 023e
00000210: f8e9 a4bd f98f 403e cef9 0ebd b6d7 fe3d
00000220: 9a7b a7bb 94a2 ffbc fd58 893d 06ac a2bd
00000230: c970 77bd 8a7a 903d 1b99 113e 78e9 a73d
00000240: 8cd5 06bd 01eb 013e b515 363d 2e69 9fbc
00000250: 1fd8 a23d bc97 703c ed19 f83d 8895 d03d
00000260: 9043 cebc 5c78 003e 955a fbbd 198b 66be
00000270: c802 3b3d e21e d4bd 645d 5a3d 1067 9bbd
00000280: 3982 64bc 5943 5abd 52ce 683c aaed 4b3d
00000290: 497a d1bc 2fda 59bd 36f9 cebb f2bf b83d
000002a0: ab57 4bbd c334 313e 9e0b 833c c1c2 0cbd
000002b0: 9f2f 4a3b e8a4 19be 6283 03be 6564 a5bd
000002c0: 468f c33d 67a8 cabc 0fc8 f9bd 28d0 223d
000002d0: c01d 09be 2cd6 b4bd 3d1f b3bd f693 2abd
000002e0: 3a70 5a3b 89e0 03be 2ccb a23d 2961 f53d
000002f0: 9ed4 96bd 18a3 ee3d 24d2 83bd f05b 753d
00000300: 7cac 573e d029 7cbd f4c1 0fbd 950f 07bd
00000310: 9751 98bd 685f 903d f8b4 c63d 8bcc 5a3d
00000320: 0abf a33d 565f df3d 7136 b0bd efd3 8c3d
00000330: 0b43 043e 27f5 25bc 4038 cd3d 25b2 0f3d
00000340: 65ff 0fbe d5d2 7f3e 2fcf 41bc 9c97 af3d
00000350: 6dca 1c3b d0bd 033e 12e9 10be ef3b 453c
00000360: a5ff 8b3d 69bb ffbc a592 6dbd e847 c3bc
00000370: 78fd a13d fa69 263e 44f3 5ebd be48 6cbd
00000380: a421 9abc f6af 6dbd 8e18 883d 5add a8bc
00000390: 4106 babd da89 853d 3d9e 213c 664b 26bd
000003a0: c64c 333d f605 a33d a5ed 9cbd 6ef6 353e
000003b0: e93f b3bc c136 b3bd e730 1cbd c788 8ebd
000003c0: 746c 67bd a4a7 28be 6f1c 66be 7459 bcbd
000003d0: 7fbc 6cbd 37b9 9f3c aa73 3c3d 18f0 4cbd
000003e0: 6746 ce3d 881e fe3c 7035 eabc fc21 44bd
000003f0: 0dc7 533b 1758 3cbd ee9c 943d 40d4 a5bd

std.constant6 f4 [32, 32]
0.04719493 -0.01899334 0.11177089 0.011808588 -0.0185097 -0.12379874 0.10782885 -0.19528402
0.026164712 -0.03622156 0.026986366 0.18593983 -0.06602427 -0.10818957 -0.1112992 0.0221133
-0.08807149 -0.0027317163 0.088459976 -0.047277726 0.02092123 -0.0054232534 -0.022668518 0.026803354
-0.13019148 0.12230552 0.06588739 -0.005134723 0.002611258 0.13853362 -0.26186645 0.06596208
0.051210053 0.03781591 0.09335669 0.06394349 -0.047748737 -0.09710025 0.23675859 -0.10720664
-0.016098887 -0.08958249 -0.020566246 0.015157712 -0.030670358 -0.16924666 -0.16030723 -0.073543645
0.16032752 -0.18207134 -0.026231593 0.052661523 -0.04882089 0.09282168 0.04897539 -0.045468178
-0.042222846 -0.03553008 -0.01820251 -0.02152571 -0.034489945 0.06251483 -0.037177257 0.09073469
-0.030867329 -0.057750065 0.029880138 -0.020567628 -0.017957406 0.02823747 -0.10563109 0.09491984
-0.037680265 -0.09579643 -0.05301178 0.09908094 0.043074556 -0.03328334 0.0679304 -0.001676838
-0.027674634 0.0041113324 -0.09110329 -0.009974842 -0.07388008 -0.14019112 0.18481536 0.11657437
-0.15889184 0.12906024 -0.002046648 0.047050975 0.061100252 -0.06830481 -0.07978386 0.114472695
-0.066109985 -0.099868014 -0.05032378 -0.16044766 -0.0253089 -0.045174815 0.107672244 -0.12847851
-0.038887337 -0.08412921 0.050681986 -0.046685997 0.14846359 -0.053575944 0.048931032 -0.10461481
0.120689325 0.18096003 0.026326831 0.006705539 -0.11854876 -0.076785415 -0.030120287 -0.021997672
-0.12862371 -0.03133095 -0.14582404 -0.16247597 -0.12436795 0.18349211 0.12474352 -0.044498835
-0.15498193 -0.13514762 -0.030479068 0.021788586 -0.14574675 -0.051734965 -0.081402175 0.025455285
-0.032806367 0.053819396 0.12631126 -0.039888598 -0.10433356 -0.0447356 -0.06815501 0.14821185
-0.0881519 0.14197204 -0.06285708 -0.03171744 0.08570222 0.07180481 -0.06853894 -0.0037555068
0.0799566 -0.0008887383 -0.011564577 -0.11205936 0.004794823 -0.15360722 0.05183016 0.024160204
0.17493916 0.03162827 0.097087845 -0.031344775 0.03220833 0.2748619 0.0065707895 -0.024875408
-0.20183659 -0.051814042 -0.052199233 -0.045012154 0.098549925 0.04567901 -0.11169995 -0.005735925
-0.16668236 -0.060731467 -0.0850638 0.073247954 0.037458897 -0.19833311 -0.045515507 -0.09350497
-0.112228364 0.03791126 0.045614727 0.08758733 0.033353195 0.1806861 0.21111915 0.013398501
-0.0027847223 0.028582497 -0.031060172 0.14721309 0.037829403 -0.047333624 0.0037474409 0.056460846
0.021543875 0.09416422 0.16151181 0.08530182 0.011292811 0.08082315 -0.06403974 -0.026023911
0.061913636 0.06905954 0.016468985 -0.0144698685 -0.037197582 -0.1430296 -0.15887079 0.06469463
0.12127707 0.0057308148 0.10677168 0.032826353 -0.09545348 -0.033785693 0.07173905 0.03666433
-0.02921894 0.16274256 -0.22610389 -0.010656292 -0.0032479954 0.021808097 0.008329275 0.0936007
0.029204864 0.015176183 0.010035228 -0.087771736 -0.05221097 -0.024867892 -0.04405079 -0.04469539
0.030796835 0.115447335 -0.20875984 0.23597643 0.08987088 0.0749521 0.060041744 -0.0321454
0.014992938 -0.30708766 0.080870725 0.1575468 -0.05198485 0.07257821 0.0034183427 -0.13654314
00000000: 794f 413d ec97 9bbc 23e8 e43d cf78 413c
00000010: a8a1 97bc 328a fdbd 5fd5 dc3d 89f8 47be
00000020: 6157 d63c 0f5d 14bd 8312 dd3c 0367 3e3e
00000030: bc37 87bd 7e92 ddbd d6f0 e3bd f426 b53c
00000040: d35e b4bd 9806 33bb 812a b53d 4aa6 41bd
00000050: 0063 ab3c 8cb5 b1bb 54b3 b9bc b592 db3c
00000060: ea50 05be 517b fa3d f8ef 863d 2e41 a8bb
00000070: a421 2b3b c2db 0d3e 5c13 86be 2117 873d
00000080: a2c1 513d dbe4 1a3d cb31 bf3d cef4 823d
00000090: 2e94 43bd 7fdc c6bd d870 723e 288f dbbd
000000a0: d0e1 83bc 0677 b7bd 8b7a a8bc 0d58 783c
000000b0: 6740 fbbc ff4e 2dbe 9427 24be 0d9e 96bd
000000c0: e62c 243e e970 3abe a3e3 d6bc 9cb3 573d
000000d0: 6af8 47bd 4b19 be3d 6b9a 483d d73c 3abd
000000e0: ddf1 2cbd fd87 11bd 6e1d 95bc b056 b0bc
000000f0: 5445 0dbd c607 803d 2e47 18bd 1cd3 b93d
00000100: 7bdd fcbc 558b 6cbd 31c7 f43c 717d a8bc
00000110: 691b 93bc 4452 e73c 1d55 d8bd 5565 c23d
00000120: 9f56 1abd eb30 c4bd e122 59bd f3ea ca3d
00000130: f26e 303d 1d54 08bd 181f 8b3d 59c9 dbba
00000140: eab5 e2bc 5bb8 863b 5d94 babd 856d 23bc
00000150: 704e 97bd 438e 0fbe 3d40 3d3e 8bbe ee3d
00000160: 8bb4 22be 5e28 043e 0e21 06bb 86b8 403d
00000170: 4244 7a3d 64e3 8bbd b865 a3bd a970 ea3d
00000180: ac64 87bd 9a87 ccbd 4f20 4ebd 644c 24be
00000190: 9c54 cfbc 3a09 39bd 4483 dc3d df8f 03be
000001a0: 5448 1fbd ef4b acbd ea97 4f3d d139 3fbd
000001b0: d706 183e 7372 5bbd e86b 483d 4a40 d6bd
000001c0: f72b f73d 964d 393e 5eab d73c 23ba db3b
000001d0: b1c9 f2bd ac41 9dbd d2be f6bc 7634 b4bc
000001e0: efb5 03be e254 00bd e652 15be 1a60 26be
000001f0: a0b4 febd 5be5 3b3e 8879 ff3d 6944 36bd
00000200: 95b3 1ebe 2364 0abe 3daf f9bc fa7d b23c
00000210: a33e 15be 0be8 53bd 2fb6 a6bd 9a87 d03c
00000220: f85f 06bd ba71 5c3d bd57 013e 3a62 23bd
00000230: d5ac d5bd ad3c 37bd db94 8bbd d9c4 173e
00000240: fc88 b4bd 1e61 113e 36bb 80bd 25ea 01bd
00000250: a584 af3d 660e 933d 255e 8cbd f31e 76bb
00000260: 49c0 a33d 38fa 68ba 5a79 3dbc 617f e5bd
00000270: e41d 9d3b 364b 1dbe dd4b 543d 9feb c53c
00000280: 4023 333e a58c 013d fed5 c63d 6163 00bd
00000290: e2ec 033d b3ba 8c3e c74f d73b 83c7 cbbc
000002a0: 40ae 4ebe f63a 54bd ddce 55bd aa5e 38bd
000002b0: 8bd4 c93d ea19 3b3d f2c2 e4bd 6df4 bbbb
000002c0: c8ae 2abe 8fc1 78bd ee35 aebd 0603 963d
000002d0: 806e 193d d617 4bbe 786e 3abd 897f bfbd
000002e0: fcd7 e5bd d648 1b3d 82d6 3a3d fc60 b33d
000002f0: 5c9d 083d c705 393e 9e2f 583e 6385 5b3c
00000300: e37f 36bb d725 ea3c e771 febc 07bf 163e
00000310: 01f3 1a3d e7e0 41bd a097 753b 7d43 673d
00000320: c87c b03c 2cd9 c03d 5a63 253e b8b2 ae3d
00000330: 7b05 393c 9c86 a53d 4427 83bd 1930 d5bc
00000340: 2799 7d3d 176f 8d3d f7e9 863c 0713 6dbc
00000350: 7e5c 18bd 5a76 12be 06af 22be 9e7e 843d
00000360: 1d60 f83d 8fc9 bb3b 1cab da3d ed74 063d
00000370: 1d7d c3bd de62 0abd eceb 923d 562d 163d
00000380: 8f5c efbc fca5 263e c787 67be ba97 2ebc
00000390: 52dc 54bb e5a6 b23c 8377 083c b9b1 bf3d
000003a0: 0a3f ef3c 86a5 783c cc6a 243c abc1 b3bd
000003b0: 2cdb 55bd c0b7 cbbc 9a6e 34bd 8312 37bd
000003c0: a549 fc3c a76f ec3d 24c5 55be cea3 713e
000003d0: 390e b83d 7d80 993d 55ee 753d e5aa 03bd
000003e0: f1a4 753c 983a 9dbe 8d9f a53d f353 213e
000003f0: 11ee 54bd e2a3 943d 4606 603b f7d1 0bbe

std.constant7 f4 [32, 32]
-0.16325995 -0.05370606 0.112094134 -0.0436828 0.2067104 -0.13290827 -0.16015437 -0.091405846
0.014116543 0.026316537 -0.03729802 -0.11644401 0.112954505 0.054735553 0.03815077 0.051019337
-0.13429111 -0.028245933 -0.08951444 -0.006269766 0.18067616 0.098508805 -0.08259563 0.019435026
-0.080189414 -0.0031265044 -0.028170729 0.087003276 -0.048287228 0.18114443 -0.08476123 -0.063794054
0.053733367 -0.08311883 0.13232179 0.20409796 -0.14268053 -0.08169612 -0.066952884 0.040058184
-0.15435918 0.12143401 -0.10147742 -0.025994258 0.00523492 -0.057540264 0.11198257 0.10356812
0.026114663 0.01648944 0.043159325 -0.033610508 -0.035499435 -0.2504732 0.00303986 -0.09224879
0.18037565 0.008857053 -0.05799296 -0.002533539 -0.048084896 -0.018541202 -0.1801769 -0.05421844
-0.062229123 -0.029521627 0.04153387 -0.17888777 -0.105973564 0.015820581 -0.035518732 0.083826624
0.053735025 -0.02428182 -0.041634336 0.06821769 -0.07944786 0.015041129 0.06710894 0.25473326
0.04031355 -0.21984789 0.020038893 0.08942742 0.047858663 0.023102194 -0.05127037 -0.013947944
0.06895474 0.0006644931 -0.22854497 0.016831707 -0.009773401 -0.09330364 0.087074175 -0.12732352
-0.06701661 -0.12823857 0.018133083 -0.081616156 0.03509386 0.12508889 0.022533717 -0.05620002
-0.107347496 0.020881463 0.081421204 0.03254692 0.050541814 -0.19693185 -0.112924404 -0.06926182
-0.03739099 0.04679755 0.07245774 -0.11693125 -0.029319832 -0.07250327 -0.07807951 0.14399111
0.021442095 -0.041753456 -0.027977524 0.0397394 -0.20062953 -0.15185754 -0.085958384 -0.06691023
-0.02695042 0.0860793 -0.043766964 0.011570601 0.11494665 -0.08778339 -0.057298705 -0.20794262
0.1263016 0.07689155 -0.0005277015 0.030462382 -0.1040932 -0.016327707 -0.10898656 0.011185476
0.015218807 0.02185176 -0.07834504 0.048138205 0.035860557 -0.058579423 -0.15951914 -0.12138412
-0.0753586 -0.09566479 0.0056489804 0.15229303 0.1593002 0.13491985 0.067590974 0.043340813
0.011415095 -0.025115227 -0.015667984 -0.17443946 0.043931734 0.033112 -0.020506267 -0.06939377
-0.1601072 -0.026772378 0.06032844 -0.01814674 0.006610152 -0.043113306 0.08837905 -0.027216246
0.050381698 0.07410065 0.042831693 -0.12670232 0.030467108 -0.0020951186 0.075826466 0.15404807
-0.11595087 -0.07870761 0.032257967 -0.029057557 0.03939431 -0.16398342 -0.083717234 0.04214604
0.17390883 0.01233285 0.055752873 0.074901156 -0.10937871 -0.05737053 -0.12602994 0.18499814
0.12816748 -0.06906677 0.12579912 -0.09431765 0.1540479 -0.053733114 -0.02408472 -0.06789183
0.017388798 -0.013360484 -0.08635906 0.12092235 0.01948292 -0.07080332 0.032168224 -0.071629435
-0.15090159 -0.084692895 0.09970106 -0.05787657 0.12023217 0.14228414 -0.10785291 0.09189113
0.01684039 -0.0006023982 0.13229267 -0.0022987123 0.06189734 -0.063456655 -0.028318578 0.058235966
0.028706884 0.077068985 0.14726336 0.08381145 -0.1591236 -0.026861073 0.12071577 -0.011211247
-0.14777157 0.037262358 0.03496477 0.044870246 -0.04989386 0.15022579 -0.039027955 0.15577605
-0.113956936 -0.13305259 0.008850401 -0.070116304 0.23350531 0.04922098 -0.12128676 -0.09811972
00000000: 9e2d 27be e3fa 5bbd 9c91 e53d bcec 32bd
00000010: e4ab 533e 1b19 08be 82ff 23be fd32 bbbd
00000020: 1349 673c c795 d73c cfc5 18bd 327a eebd
00000030: b154 e73d 6332 603d fb43 1c3d a7f9 503d
00000040: 9c83 09be 0464 e7bc 5953 b7bd 9c72 cdbb
00000050: 2c03 393e fcbe c93d e627 a9bd 3436 9f3c
00000060: 593a a4bd 0ae6 4cbb 4dc6 e6bc c62e b23d
00000070: d4c8 45bd ed7d 393e 4c97 adbd 75a6 82bd
00000080: 8517 5c3d 353a aabd 5d7f 073e 0eff 503e
00000090: d81a 12be 4c50 a7bd 981e 89bd 0d14 243d
000000a0: 5510 1ebe 65b2 f83d 65d3 cfbd e9f1 d4bc
000000b0: b189 ab3b 57af 6bbd 1e57 e53d 861b d43d
000000c0: 6bee d53c dd14 873c d5c7 303d 2cab 09bd
000000d0: db67 11bd 063e 80be 6338 473b efec bcbd
000000e0: 65b4 383e 2c1d 113c 078a 6dbd bb09 26bb
000000f0: abf4 44bd b8e3 97bc 4b80 38be 2814 5ebd
00000100: f7e3 7ebd 57d7 f1bc 6b1f 2a3d 5b2e 37be
00000110: ab08 d9bd 2a9a 813c 177c 11bd 4bad ab3d
00000120: 4219 5c3d abea c6bc c488 2abd b7b5 8b3d
00000130: 8fb5 a2bd 116f 763c 6970 893d 666c 823e
00000140: d21f 253d ce1f 61be 9b28 a43c b925 b73d
00000150: 7207 443d d040 bd3c e100 52bd eb85 64bc
00000160: 2538 8d3d 6131 2e3a b107 6abe a6e2 893c
00000170: 9d20 20bc fb15 bfbd f253 b23d 1961 02be
00000180: 0140 89bd f950 03be d58b 943c 5f26 a7bd
00000190: 94be 0f3d 4d17 003e a198 b83c fe31 66bd
000001a0: 01d9 dbbd 9a0f ab3c 29c0 a63d eb4f 053d
000001b0: ef04 4f3d 81a8 49be e944 e7bd 24d9 8dbd
000001c0: 4b27 19bd caae 3f3d b964 943d a779 efbd
000001d0: 2530 f0bc 987c 94bd 26e8 9fbd 6872 133e
000001e0: 55a7 af3c ac05 2bbd 1f31 e5bc c8c5 223d
000001f0: d471 4dbe 8b80 1bbe f30a b0bd 3b08 89bd
00000200: 21c7 dcbc 584a b03d fd44 33bd 9e92 3d3c
00000210: 2669 eb3d c7c7 b3bd 0cb2 6abd e9ee 54be
00000220: 3555 013e 5179 9d3d 7355 0aba 3f8c f93c
00000230: d12e d5bd afc1 85bc 5834 dfbd 4943 373c
00000240: 4e58 793c 7602 b33c 5d73 a0bd 912c 453d
00000250: 85e2 123d faf0 6fbd fc58 23be 3d98 f8bd
00000260: 9c55 9abd e7eb c3bd 151b b93b b4f2 1b3e
00000270: 971f 233e 6e28 0a3e 236d 8a3d 2386 313d
00000280: 6106 3b3c 73be cdbc 255a 80bc 42a0 32be
00000290: c3f1 333d 73a0 073d c2fc a7bc 521e 8ebd
000002a0: 24f3 23be bf51 dbbc f41a 773d 79a8 94bc
000002b0: f999 d83b 9497 30bd 1300 b53d 9bf4 debc
000002c0: 0a5d 4e3d 15c2 973d 4970 2f3d 41be 01be
000002d0: 2896 f93c 424e 09bb e84a 9b3d c7be 1d3e
000002e0: a677 edbd 7531 a1bd ee20 043d 1d0a eebc
000002f0: ee5b 213d 45eb 27be f173 abbd 53a1 2c3d
00000300: 2815 323e b90f 4a3c 205d 643d c765 993d
00000310: f201 e0bd 5cfd 6abd fe0d 01be 2770 3d3e
00000320: 563e 033e e172 8dbd 7cd1 003e 9d29 c1bd
00000330: bcbe 1d3e 4117 5cbd 524d c5bc df0a 8bbd
00000340: f472 8e3c eee5 5abc 05dd b0bd 23a6 f73d
00000350: a59a 9f3c 5501 91bd d4c2 033d 74b2 92bd
00000360: f285 1abe 7873 adbd 1230 cc3d fb0f 6dbd
00000370: 493c f63d efb2 113e fde1 dcbd 6b31 bc3d
00000380: dcf4 893c 42ea 1dba bb77 073e fea5 16bb
00000390: 1188 7d3d 90f5 81bd 5dfc e7bc d688 6e3d
000003a0: b32a eb3c 58d6 9d3d 35cc 163e 56a5 ab3d
000003b0: 4cf1 22be c10b dcbc d439 f73d 61af 37bc
000003c0: 6e51 17be 6aa0 183d 3837 0f3d ddc9 373d
000003d0: 815d 4cbd cad4 193e c7db 1fbd c283 1f3e
000003e0: 4162 e9bd f03e 08be 4601 113c 2399 8fbd
000003f0: 041c 6f3e f09b 493d 3165 f8bd fef2 c8bd

std.constant8 f4 [32, 32]
0.14996035 0.10157984 -0.044071298 0.025620565 -0.01194737 0.02160833 0.0070572714 -0.077075355
-0.11434165 0.11410493 0.09939891 0.057065904 0.02041577 0.012366176 -0.035306633 -0.12621103
-0.068600036 -0.15088701 -0.015365829 -0.035733204 0.048207916 0.010361572 -0.033406954 -0.0071489126
-0.10345589 -0.006362574 -0.26550615 0.081668 0.033295386 -0.023683708 0.0399361 -0.0005773373
0.0054844576 -0.044581436 0.09019985 0.038148437 -0.03342825 -0.05145133 -0.08843504 -0.15506725
-0.03466497 0.06379696 -0.075184815 -0.004260468 0.10307732 -0.108996466 -0.036650084 0.067000635
-0.0049917805 0.06330144 -0.008194161 0.11902904 0.042365022 0.1502574 -0.015804414 -0.07791459
-0.10615952 -0.039839827 0.15146886 -0.03370862 0.00063196965 0.104666576 0.09619525 0.08901919
-0.2840836 0.072467774 -0.17638321 0.11153939 -0.09600398 -0.069125034 0.14382434 0.13836373
-0.034320462 0.048488185 0.042556483 0.11806822 0.03568782 -0.03641037 -0.02792642 0.052324567
-0.051846422 0.015998395 0.016530031 -0.09877204 0.034183934 0.01624721 0.032236394 -0.028313365
-0.0280132 0.1689504 0.03150189 -0.029480502 0.20113845 0.017064573 0.10905907 0.034726497
-0.11628106 0.08307682 -0.12933917 0.14588621 0.0040121 0.031673692 0.14671923 -0.08104957
0.04510521 0.04014535 -0.12312566 0.07156262 0.10915891 -0.008011618 0.124264404 0.10419963
0.07043222 -0.017091269 0.0145855835 -0.058871295 -0.119461216 -0.11792362 -0.15263087 -0.011684077
0.0059252116 -0.18453847 0.07624059 0.019823344 -0.0041525015 -0.13058655 0.11742012 0.04923356
0.12515192 0.04725473 0.054369494 -0.0760432 -0.017927442 -0.02834028 0.09838399 0.02122331
0.13926975 0.04148077 -0.08482652 0.027366512 -0.07392789 0.10502443 0.0017731667 -0.18665113
-0.10205757 -0.19345924 0.12629405 -0.034723688 -0.0010922453 0.19492322 -0.076589696 -0.020146547
-0.101461 0.10959332 0.2454654 -0.15039557 0.030374905 -0.054916985 -0.028480684 -0.0772496
-0.038824752 0.15170875 -0.112941734 -0.097900845 -0.036915928 -0.107277066 0.019642694 0.08405223
-0.08239595 0.006293113 -0.11154524 -0.16953579 0.10475294 -0.11192332 0.03471159 -0.0022804348
0.0378737 0.094001405 -0.005833191 -0.10359508 -0.0041070455 -0.010705792 -0.0004384621 0.09491673
0.026336737 0.18744159 0.12011647 -0.02313688 0.012905151 -0.023838483 -0.09034022 -0.00396084
-0.060670756 0.021049673 -0.05477722 0.15842882 -0.11099456 0.08008758 -0.04405255 -0.16417928
0.0061908155 0.02206487 0.031032884 0.008360807 -0.009733323 -0.080269076 -0.018910538 -0.07025518
0.10329297 -0.101719715 0.0068648895 -0.12016409 0.16587295 -0.12886491 0.081873216 0.035479818
-0.03971195 -0.06958402 -0.12946111 0.12788239 -0.022640074 0.0085582845 0.09039825 0.11208299
0.040827993 -0.0048602126 0.08572171 -0.04142081 -0.060629822 -0.08979082 -0.098500125 0.009703409
-0.02181125 -0.08878275 0.018482452 -0.19464193 -0.20456214 -0.13040039 -0.08924682 0.011509106
0.025553105 -0.2026023 -0.05729384 -0.052267917 0.09674955 0.056135412 -0.12700665 0.07741114
-0.14822078 0.052194823 0.13304831 0.050813608 0.05337496 0.10527186 0.08840434 -0.1057831
00000000: 358f 193e 1709 d03d 1b84 34bd 38e2 d13c
00000010: e7be 43bc f403 b13c af40 e73b afd9 9dbd
00000020: f42b eabd d8af e93d a891 cb3d f0bd 693d
00000030: f93e a73c 809b 4a3c b09d 10bd 773d 01be
00000040: 2d7e 8cbd 2082 1abe f5c0 7bbc fb5c 12bd
00000050: aa75 453d 95c3 293c bbd5 08bd 6d41 eabb
00000060: afe0 d3bd 247d d0bb 6cf0 87be 8d41 a73d
00000070: be60 083d 5604 c2bc 0994 233d 7358 17ba
00000080: f7b6 b33b 069b 36bd b3ba b83d 8941 1c3d
00000090: 10ec 08bd a1be 52bd 6e1d b5bd f3c9 1ebe
000000a0: dbfc 0dbd fba7 823d 7ffa 99bd 659b 8bbb
000000b0: 341a d33d 8a39 dfbd 661e 16bd a137 893d
000000c0: 1792 a3bb 2fa4 813d cd40 06bc 7fc5 f33d
000000d0: f286 2d3d 13dd 193e 4278 81bc af91 9fbd
000000e0: 2a6a d9bd 162f 23bd a71a 1b3e 0d12 0abd
000000f0: c4aa 253a 6e5b d63d 0402 c53d b14f b63d
00000100: 6873 91be fc69 943d cd9d 34be c46e e43d
00000110: bc9d c4bd 6d91 8dbd b046 133e 39af 0d3e
00000120: 9d93 0cbd 8c9b 463d b54f 2e3d c0cd f13d
00000130: 642d 123d 0a23 15bd f3c5 e4bc 4952 563d
00000140: ea5c 54bd 110f 833c fd69 873c ff48 cabd
00000150: 7404 0c3d de18 853c 4f0a 043d 6ef1 e7bc
00000160: f07b e5bc 5501 2d3e 2008 013d 1881 f1bc
00000170: 3df7 4d3e 01cb 8b3c 5d5a df3d 5f3d 0e3d
00000180: c424 eebd 2e24 aa3d 7d71 04be 3263 153e
00000190: ef77 833b 46bc 013d 913d 163e 51fd a5bd
000001a0: 3ec0 383d 736f 243d 4e29 fcbd 6c8f 923d
000001b0: b58e df3d 2943 03bc 567e fe3d 9e66 d53d
000001c0: c53e 903d fd02 8cbc 5ff8 6e3c 0723 71bd
000001d0: 15a8 f4bd f081 f1bd 444b 1cbe 926e 3fbc
000001e0: 4728 c23b a7f7 3cbe 0724 9c3d 9164 a23c
000001f0: b511 88bb 7bb8 05be f679 f03d 21a9 493d
00000200: d327 003e 2d8e 413d 8cb2 5e3d 8abc 9bbd
00000210: 92dc 92bc e029 e8bc 8c7d c93d 82dc ad3c
00000220: bb9c 0e3e bde7 293d 87b9 adbd bc2f e03c
00000230: 8167 97bd 0c17 d73d 9a69 e83a 7921 3fbe
00000240: 8f03 d1bd 2e1a 46be 3a53 013e 6d3a 0ebd
00000250: ac29 8fba f499 473e 0fdb 9cbd 5f0a a5bc
00000260: c9ca cfbd 7672 e03d 485b 7b3e 4c01 1abe
00000270: cbd4 f83c a2f0 60bd 5350 e9bc 0a35 9ebd
00000280: b406 1fbd 8a59 1b3e ff4d e7bd 3d80 c8bd
00000290: 2835 17bd 14b4 dbbd b7e9 a03c 9323 ac3d
000002a0: 35bf a8bd 7536 ce3b d571 e4bd ca9a 2dbe
000002b0: b688 d63d 0e38 e5bd bd2d 0e3d 5973 15bb
000002c0: 7421 1b3d cf83 c03d 5a24 bfbb a829 d4bd
000002d0: 6594 86bb 5967 2fbc 63e1 e5b9 b463 c23d
000002e0: 24c0 d73c b0f0 3f3e a0ff f53d 8e89 bdbc
000002f0: 2070 533c ec48 c3bc 4b04 b9bd efc9 81bb
00000300: e681 78bd 5d70 ac3c 145e 60bd 2a3b 223e
00000310: 1e51 e3bd f504 a43d 7270 34bd 9d1e 28be
00000320: 53dc ca3b 63c1 b43c ad38 fe3c c4fb 083c
00000330: 8478 1fbc 1d64 a4bd 46ea 9abc f3e1 8fbd
00000340: 448b d33d 6d52 d0bd def2 e03b 9718 f6bd
00000350: 99da 293e 2af5 03be 25ad a73d 4953 113d
00000360: ffa8 22bd 1182 8ebd 7491 04be 9af3 023e
00000370: ad77 b9bc 0c38 0c3c b822 b93d c48b e53d
00000380: 413b 273d 6b42 9fbb dd8e af3d dea8 29bd
00000390: fa56 78bd 40e4 b7bd 6fba c9bd 0cfb 1e3c
000003a0: 82ad b2bc bbd3 b5bd 8368 973c 3750 47be
000003b0: bd78 51be ae87 05be 09c7 b6bd b090 3c3c
000003c0: bf54 d13c fa76 4fbe f2ac 6abd e216 56bd
000003d0: a124 c63d 3fee 653d 080e 02be bb89 9e3d
000003e0: 30c7 17be 3dca 553d d13d 083e ee21 503d
000003f0: b49f 5a3d c698 d73d 560d b53d cfa4 d8bd

std.constant9 f4 [32]
0.030553387 0.0035633112 0.01027733 -0.008445273 0.0036635988 -0.0007184056 0.0011141676 0.027484942
0.012985212 0.012863483 -0.00067277276 0.06308645 0.038352706 0.035085127 -0.005412216 0.050207496
-0.026841499 -0.014691454 0.02899031 0.12573504 0.004656075 0.003125117 0.014854693 0.033729535
0.040813018 -0.017161537 -0.0145676695 -0.034813266 0.016534315 -0.038371112 0.020205181 0.09391107
00000000: 194b fa3c 7186 693b 3f62 283c 0b5e 0abc
00000010: fd18 703b 6253 3cba 4309 923a 1a28 e13c
00000020: edbf 543c 5cc1 523c 045d 30ba 7833 813d
00000030: ba17 1d3d 6cb5 0f3d f558 b1bb 60a6 4d3d
00000040: b4e2 dbbc 6db4 70bc 167d ed3c b0c0 003e
00000050: fd91 983b c3ce 4c3b 1961 733c fb27 0a3d
00000060: 8d2b 273d 5a96 8cbc 3cad 6ebc 5b98 0ebd
00000070: f972 873c 072b 1dbd 5685 a53c 7254 c03d

std.constant10 f4 [32]
0.996585 0.9736563 0.99828106 0.9414315 1.0140226 0.9903989 0.9934927 1.0122615
0.9815337 0.99902266 0.98233324 0.97299445 0.92960775 0.9716789 0.98311114 1.0045612
0.95909745 0.96486694 0.9834178 1.0262896 0.9949599 0.9766343 0.9448251 0.99175775
0.9699105 0.974213 0.9874339 0.9572205 1.0060191 0.96137774 1.0075009 1.0978373
00000000: 3220 7f3f 8a41 793f 598f 7f3f a801 713f
00000010: 7ecb 813f c88a 7d3f 8a55 7e3f c991 813f
00000020: cb45 7b3f f3bf 7f3f 317a 7b3f 2a16 793f
00000030: c6fa 6d3f f3bf 783f 2cad 7b3f 7695 803f
00000040: 6987 753f 8501 773f 45c1 7b3f 755d 833f
00000050: b1b5 7e3f b504 7a3f 0fe0 713f d6e3 7d3f
00000060: 0e4c 783f 0666 793f 78c8 7c3f 670c 753f
00000070: 3cc5 803f da1c 763f caf5 803f ef85 8c3f

std.constant11 f4 [32]
0.03054315 0.0014289847 -0.00400494 0.013228392 0.020604901 -0.006128404 0.000104615174 0.014160913
-0.0071081948 0.006036974 -0.005370346 0.010618066 0.004028985 0.008239384 -0.018001389 0.017383784
-0.004882094 -0.0055696806 -0.0049442966 0.0037986513 -0.0077766697 -0.009384242 0.0030343675 0.022384392
0.0062782997 0.011342929 0.02274345 -0.014501172 0.012828931 0.005296658 0.0069523267 -0.010110766
00000000: a135 fa3c c54c bb3a df3b 83bb e6bb 583c
00000010: 9ccb a83c c7d0 c8bb d864 db38 2d03 683c
00000020: dceb e8bb cfd1 c53b baf9 afbb 66f7 2d3c
00000030: 9305 843b 7bfe 063c a677 93bc 7068 8e3c
00000040: f9f9 9fbb de81 b6bb c403 a2bb cbf2 783b
00000050: 6fd3 febb 5dc0 19bc 3ddc 463b 795f b73c
00000060: 32ba cd3b b1d7 393c 7950 ba3c 5396 6dbc
00000070: 7030 523c 968f ad3b 58d0 e33b a0a7 25bc

std.constant12 f4 [32]
0.022376023 0.00013118908 0.0059786723 -0.027761728 0.008656964 -0.001167229 0.0041912375 0.0026158304
0.0053108977 0.0022229594 -0.013551104 0.04513913 0.015880648 0.02195735 0.004123212 0.0048234574
-0.02513838 -0.014773586 0.03603104 0.005674073 0.0013129525 0.0052956264 0.011473349 -0.0016065957
0.0368744 -0.022104273 -0.014266956 -0.035008855 0.007018474 -0.038624108 0.01587873 0.0013952135
00000000: ec4d b73c cd8f 0939 bde8 c33b 906c e3bc
00000010: f0d5 0d3c b5fd 98ba a656 893b 5a6e 2b3b
00000020: 0a07 ae3b 12af 113b 7305 5ebc cfe3 383d
00000030: 2218 823c e7df b33c 021c 873b 180e 9e3b
00000040: 01ef cdbc e90c 72bc 4995 133d 93ed b93b
00000050: 6017 ac3a ef86 ad3b b7fa 3b3c 6894 d2ba
00000060: 9c09 173d 0514 b5bc f3bf 69bc 7265 0fbd
00000070: 3afb e53b 5034 1ebd 1c14 823c 99df b63a

std.constant13 f4 [32, 128]
0.1260991 -0.07027603 0.04278612 0.06608701 0.014144548 0.117085606 0.07103177 0.13669644
0.040421117 -0.09407746 -0.035307366 -0.075802855 -0.052787833 -0.092919834 -0.077032 -0.03346118
0.16567019 -0.05679243 -0.11145337 -0.11987551 -0.09184247 0.09140061 0.170555 -0.11096932
-0.15214854 -0.034640636 0.101357095 -0.073276505 0.0916416 -0.0016478826 0.093340956 -0.12946023
-0.052526146 -0.051086776 -0.09517001 0.034043033 0.096239395 0.07446001 -0.07054249 -0.12195154
0.11272291 0.113325246 -0.16005914 -0.12308017 -0.089862734 0.092026934 -0.1746735 -0.06889134
0.144813 -0.07105095 -0.036906358 -0.19986232 0.07587622 -0.1269386 -0.16196309 -0.14032917
0.1170628 0.025807384 0.014470268 -0.15255989 -0.0009921716 -0.04643729 -0.011439089 0.10231702
0.04268344 -0.031430468 0.019399779 0.010132238 0.005651193 -0.099573374 -0.05449519 0.15690939
-0.0416622 -0.10936987 0.0840943 0.03326749 0.17156035 0.0041565504 -0.0015149495 0.029938713
-0.08992004 0.0338466 -0.13422064 -0.08841948 -0.15606365 -0.047248606 0.047982093 -0.055347722
-0.017969979 -0.12058551 0.108577006 -0.0740231 0.026802823 0.07085296 0.09290922 0.12139192
-0.05805893 0.041791685 0.0670636 -0.07781458 0.023054939 -0.17873336 0.058715414 0.1467891
-0.11023359 -0.10019608 -0.024383176 -0.1028476 -0.14249714 0.00039836921 -0.010562399 -0.16547903
-0.10754524 -0.036925916 -0.07712302 0.0696491 -0.02457198 -0.1367666 -0.05783834 0.025119396
0.113297805 0.026438016 -0.09768346 -0.107816465 -0.093856074 -0.081095465 0.057200696 0.14953996
0.011908538 -0.02990946 0.034087572 -0.025090827 -0.07429531 -0.06547444 -0.09185613 0.13375649
0.08066448 0.062108375 -0.081876 -0.032081414 -0.049484927 -0.08058547 -0.08059588 0.12689668
0.062336233 -0.11500415 0.08277368 -0.10489969 0.0602781 0.075251415 -0.03016162 0.03955512
0.01006857 -0.038086724 -0.073802434 -0.029621875 0.13863583 0.13113008 0.052546278 0.023733888
0.15460558 0.021529296 0.013853623 -0.067102134 0.0074309455 -0.06390326 0.16305701 -0.04770765
0.08907885 0.09268948 0.010888101 -0.003993509 -0.05922538 0.00071072724 -0.1254482 -0.01268791
-0.16081263 -0.11286934 0.08397163 0.09103094 0.1178668 -0.15240449 -0.14575821 0.084640056
0.100741155 0.06318673 -0.06296247 -0.11654056 -0.14109205 0.04772447 0.12020497 0.08508888
-0.12885681 0.08457368 -0.14947963 0.008378908 0.073639385 0.121573076 -0.029209336 -0.1039676
-0.06630646 0.111508474 0.13382185 -0.008311471 0.031290393 0.10132271 0.071461 -0.073655866
-0.1404136 0.047971006 0.05602499 0.13590966 0.03475904 0.014654155 -0.102793254 -0.0641129
0.08020304 -0.059182506 0.072915494 -0.052620865 -0.05367241 0.03746765 0.066914044 -0.13870016
-0.014429866 -0.13720524 0.012897386 -0.103519626 -0.09715617 -0.050241232 -0.009415404 -0.033172876
-0.079809904 0.08891046 0.0120614385 0.029060446 0.038311265 0.07002454 -0.06576849 -0.06959267
0.025568407 -0.1485443 -0.14853325 -0.057494156 0.016057886 0.1203911 -0.0821766 0.05010476
-0.15320267 -0.1225027 -0.038583808 0.014390645 0.1533704 0.001319448 0.080994174 -0.015689524
00000000: 1f20 013e e1ec 8fbd 8040 2f3d a058 873d
00000010: 89be 673c 94ca ef3d 1b79 913d 27fa 0b3e
00000020: 9d90 253d afab c0bd 759e 10bd 873e 9bbd
00000030: 0e38 58bd c14c bebd f4c2 9dbd 970e 09bd
00000040: 72a5 293e 2e9f 68bd aa41 e4bd 4b81 f5bd
00000050: e817 bcbd 3e30 bb3d f8a5 2e3e e243 e3bd
00000060: d4cc 1bbe 57e3 0dbd 4f94 cf3d fe11 96bd
00000070: 97ae bb3d c4fd d7ba 8b29 bf3d 3991 04be
00000080: a825 57bd 5e40 51bd 7fe8 c2bd b570 0b3d
00000090: 2919 c53d 7d7e 983d 9578 90bd bbc1 f9bd
000000a0: 45db e63d 1117 e83d 8be6 23be 7511 fcbd
000000b0: f409 b8bd 9e78 bc3d 9cdd 32be e716 8dbd
000000c0: dc49 143e 2983 91bd 1f2b 17bd b5a8 4cbe
000000d0: fe64 9b3d 31fc 01be a7d9 25be 73b2 0fbe
000000e0: 9fbe ef3d 026a d33c b414 6d3c a938 1cbe
000000f0: c10b 82ba 0735 3ebd 046b 3bbc 968b d13d
00000100: d5d4 2e3d 3cbd 00bd 49ec 9e3c b001 263c
00000110: a52d b93b 20ed cbbd 5936 5fbd dbac 203e
00000120: fca5 2abd 4ffd dfbd a239 ac3d 7e43 083d
00000130: 84ad 2f3e ac33 883b 4591 c6ba 0842 f53c
00000140: ff27 b8bd bca2 0a3d 2371 09be 4615 b5bd
00000150: 26cf 1fbe c187 41bd df88 443d 4bb4 62bd
00000160: c735 93bc 89f5 f6bd 9f5d de3d 6c99 97bd
00000170: 9891 db3c 5b1b 913d 3047 be3d 549c f83d
00000180: 33cf 6dbd c22d 2b3d a458 893d 405d 9fbd
00000190: b6dd bc3c e105 37be 937f 703d e24f 163e
000001a0: 26c2 e1bd 9a33 cdbd 3abf c7bc c3a1 d2bd
000001b0: c5ea 11be 36dc d039 ea0d 2dbc 5673 29be
000001c0: ae40 dcbd a13f 17bd adf2 9dbd 30a4 8e3d
000001d0: 2d4b c9bc 8b0c 0cbe e5e7 6cbd 31c7 cd3c
000001e0: ae08 e83d 8a94 d83c 440e c8bd e1ce dcbd
000001f0: 9d37 c0bd 6115 a6bd 474b 6a3d 0121 193e
00000200: 071c 433c af04 f5bc 699f 0b3d 478b cdbc
00000210: 2428 98bd 7717 86bd 111f bcbd 76f7 083e
00000220: 6b33 a53d 5a65 7e3d 9bae a7bd cd67 03bd
00000230: b5b0 4abd ff09 a5bd 740f a5bd 34f1 013e
00000240: 4754 7f3d 4c87 ebbd 3f85 a93d a6d5 d6bd
00000250: 2be6 763d 6a1d 9a3d 8015 f7bc 8d04 223d
00000260: a5f6 243c d300 1cbd bb25 97bd 93a9 f2bc
00000270: 8df6 0d3e f746 063e c43a 573d 926d c23c
00000280: ed50 1e3e 355e b03c 4efa 623c d86c 89bd
00000290: 4a7f f33b b6df 82bd 6bf8 263e 1969 43bd
000002a0: f96e b63d fbd3 bd3d 0164 323c fbdb 82bb
000002b0: 5096 72bd 1950 3a3a 7e75 00be f4e0 4fbc
000002c0: 11ac 24be 0a28 e7bd 51f9 ab3d 6e6e ba3d
000002d0: 2664 f13d ec0f 1cbe a441 15be c457 ad3d
000002e0: 6151 ce3d 0b68 813d 78f2 80bd d1ac eebd
000002f0: 6f7a 10be bc7a 433d 062e f63d 1443 ae3d
00000300: 0af3 03be f734 ad3d 3011 19be b047 093c
00000310: 3fd0 963d 4efb f83d 6b48 efbc f7ec d4bd
00000320: aecb 87bd 8e5e e43d 9808 093e d62c 08bc
00000330: 5b2a 003d 4882 cf3d 255a 923d e3d8 96bd
00000340: 95c8 0fbe 3f7d 443d 767a 653d e72b 0b3e
00000350: 7f5f 0e3d fb17 703c 4585 d2bd a04d 83bd
00000360: 7e41 a43d 5b69 72bd b854 953d fa88 57bd
00000370: 9ad7 5bbd ae77 193d 3b0a 893d 6a07 0ebe
00000380: 3f6b 6cbc 887f 0cbe 8f4f 533c 1902 d4bd
00000390: d0f9 c6bd c0c9 4dbd 1143 1abc 48e0 07bd
000003a0: 6073 a3bd b016 b63d 579d 453c 2c10 ee3c
000003b0: 46ec 1c3d 0769 8f3d a1b1 86bd 9a86 8ebd
000003c0: d674 d13c ff1b 18be 1a19 18be fe7e 6bbd
000003d0: d48b 833c 9c8f f63d 354c a8bd a63a 4d3d
000003e0: 29e1 1cbe b2e2 fabd 0e0a 1ebd bdc6 6b3c
000003f0: 210d 1d3e 54f1 ac3a 46e0 a53d 5187 80bc

std.constant14 f4 [32, 128]
-0.09902085 0.012786193 0.053800587 -0.027250217 -0.009211182 -0.032111004 0.07228267 0.013281107
-0.049066585 0.17603005 0.040040933 -0.0038114127 0.05430409 0.035567503 0.021314213 -0.0264951
-0.012450404 0.0070278537 0.036430575 0.010581008 -0.15392686 0.013084707 0.09792044 0.03424403
-0.07155903 0.044792194 -0.0807655 -0.030248914 -0.12763688 0.04719726 0.18069386 0.02286877
0.21257453 -0.0033291487 0.053976607 -0.107792705 -0.0174449 0.051127076 0.047282625 0.09223068
-0.006955996 0.026732402 0.082318835 -0.080625094 -0.1536137 0.13209628 0.12518005 0.09101377
0.078172795 -0.15153503 0.0995023 -0.12315776 0.014436299 0.07989134 0.018520677 0.13986646
-0.068685606 -0.12330592 0.041316394 0.09952216 0.06710604 0.052074898 -0.07930663 0.022459568
0.039180093 0.10458335 0.070177704 -0.058594882 -0.012096269 0.030839482 -0.10592516 0.1320345
0.060442504 0.07756324 0.11455728 0.074966855 -0.1317429 0.045209724 0.0125542795 0.10374905
0.06781876 0.13019596 -0.06988453 -0.13950546 0.02513765 0.07502962 0.016831482 0.101899825
0.01145115 -0.13713434 -0.055644404 0.119456805 0.009165074 0.124181606 -0.04146817 -0.112131774
-0.10904861 -0.13995269 0.041316193 0.0047387765 0.108883634 0.12602109 -0.06860045 -0.11436225
-0.11241354 -0.09440814 0.13835481 0.053041693 0.10678614 -0.062661365 -0.08056239 0.007562924
0.10723153 0.12905332 0.0979979 -0.14343296 -0.009936988 0.15640059 -0.012022663 -0.08207971
-0.039882157 -0.0057089454 0.072784156 0.056812033 -0.004810808 -0.016781004 -0.10290555 0.0033207394
-0.01812245 0.18858427 0.050807852 0.13657685 -0.031169727 -0.08207044 0.14085501 -0.15174909
-0.14684358 -0.08749934 -0.16973461 -0.007260846 -0.060125176 -0.12435 0.053768266 0.09785914
-0.18010661 -0.11816934 0.10666419 0.06679365 0.007921613 -0.14514062 -0.15610598 -0.082500145
0.014842536 -0.20568721 0.060001474 -0.09637626 -0.08838031 -0.19151478 0.08605037 -0.089581035
-0.062004965 0.13123187 -0.121762805 0.1543415 0.18744688 0.12134628 0.044772714 -0.012840062
0.083218925 0.14008667 -0.029838037 -0.07419222 0.026710518 0.16533357 0.17693947 0.101472855
0.026932461 -0.2028646 -0.10963057 0.12531912 0.01595926 -0.053483825 -0.09112717 -0.033775646
-0.08052963 -0.037786603 0.042490896 0.0569194 -0.06316122 0.09498568 0.11086364 0.08392362
0.033903804 -0.16060019 -0.11901957 -0.052200515 0.12580554 -0.06737044 -0.07628884 0.06614956
-0.028426167 -0.056978453 -0.037270904 -0.054987155 -0.019354912 -0.088145256 0.018966865 -0.1335666
0.0884271 0.13636121 -0.09890777 -0.014980456 0.06301669 -0.09686753 -0.075074054 0.0658689
-0.11708731 -0.085166305 0.11584859 -0.040700983 0.055019926 0.045346007 -0.06130409 -0.11630587
0.057388425 -0.002423771 -0.09541229 -0.13822347 0.07430134 -0.037707213 -0.093104914 -0.07705639
-0.025789443 0.13291906 0.0326752 -0.16299546 0.0353577 0.10333308 -0.21662386 -0.16544032
-0.15360056 0.08497756 -0.05869876 0.048467476 0.087416984 0.10142218 0.17761841 -0.06995645
-0.06945515 0.19249317 -0.063497595 -0.028114187 0.11555972 -0.10035765 -0.077970535 -0.06869204
00000000: 72cb cabd 2e7d 513c 015e 5c3d d93b dfbc
00000010: 7fea 16bc d486 03bd f008 943d 0099 593c
00000020: 0bfa 48bd 3941 343e f601 243d e5c8 79bb
00000030: f76d 5e3d 3baf 113d 259b ae3c 410c d9bc
00000040: c8fc 4bbc e949 e63b 3a38 153d f75b 2d3c
00000050: 019f 1dbe 3d61 563c 838a c83d 7843 0c3d
00000060: 8a8d 92bd 0578 373d 6268 a5bd 92cc f7bc
00000070: 3eb3 02be ea51 413d d007 393e 4957 bb3c
00000080: 23ad 593e d92d 5abb 9316 5d3d 6cc2 dcbd
00000090: 9be8 8ebc a06a 513d 6dab 413d 70e3 bc3d
000000a0: 20ef e3bb e9fd da3c c796 a83d c51e a5bd
000000b0: e94c 1dbe 3f44 073e 332f 003e 6d65 ba3d
000000c0: 0f19 a03d 002c 1bbe ddc7 cb3d 233a fcbd
000000d0: 3a86 6c3c 129e a33d adb8 973c 2739 0f3e
000000e0: 0aab 8cbd d087 fcbd 613b 293d 46d2 cb3d
000000f0: e46e 893d 7d4c 553d 846b a2bd 21fd b73c
00000100: 4e7b 203d cc2f d63d 54b9 8f3d 3001 70bd
00000110: 6e2f 46bc 15a3 fc3c 4aef d8bd 0d34 073e
00000120: 8f92 773d 7ad9 9e3d 029d ea3d 3988 993d
00000130: 9ce7 06be d52d 393d 77b0 4d3c 627a d43d
00000140: 90e4 8a3d 1752 053e 9f1f 8fbd 85da 0ebe
00000150: 79ed cd3c 21a9 993d 2de2 893c dbb0 d03d
00000160: 9b9d 3b3c f26c 0cbe 63eb 63bd c5a5 f43d
00000170: 1b29 163c ed52 fe3d 87da 29bd 58a5 e5bd
00000180: e154 dfbd c24f 0fbe 2b3b 293d bd47 9b3b
00000190: 62fe de3d ac0b 013e 657e 8cbd c136 eabd
000001a0: 1239 e6bd 0e59 c1bd e2ac 0d3e 3f42 593d
000001b0: b1b2 da3d 9a54 80bd e5fd a4bd 68d2 f73b
000001c0: 349c db3d 8e26 043e 1fb3 c83d 17e0 12be
000001d0: c0ce 22bc 7a27 203e b4fa 44bc 6819 a8bd
000001e0: 795b 23bd 1b12 bbbb dc0f 953d bcb3 683d
000001f0: fca3 9dbb 5178 89bc 25c0 d2bd c3a0 593b
00000200: 8875 94bc 3c1c 413e e51b 503d cdda 0b3e
00000210: a857 ffbc 8c14 a8bd 4c3c 103e 1d64 1bbe
00000220: 2a5e 16be db32 b3bd e9ce 2dbe 64ec edbb
00000230: d145 76bd 36ab febd 1d3c 5c3d 5f6a c83d
00000240: de6d 38be c402 f2bd c172 da3d 1ccb 883d
00000250: a7c9 013c be9f 14be 3fda 1fbe d6f5 a8bd
00000260: 1c2e 733c ab9f 52be 1bc4 753d eb60 c5bd
00000270: bc00 b5bd 731c 44be 2d3b b03d 4376 b7bd
00000280: ebf8 7dbd a661 063e c75e f9bd b30b 1e3e
00000290: 13f2 3f3e 6684 f83d 9863 373d 205f 52bc
000002a0: af6e aa3d e172 0f3e e66e f4bc 17f2 97bd
000002b0: 04d0 da3c 344d 293e 9f2f 353e 00d1 cf3d
000002c0: 77a1 dc3c bdbb 4fbe fe85 e0bd a853 003e
000002d0: febc 823c db11 5bbd e2a0 babd 5558 0abd
000002e0: b8ec a4bd 20c6 1abd ef0a 2e3d 5124 693d
000002f0: ab5a 81bd da87 c23d 7a0c e33d 26e0 ab3d
00000300: b7de 0a3d 6074 24be 88c0 f3bd 35d0 55bd
00000310: 2bd3 003e 83f9 89bd 533d 9cbd 6c79 873d
00000320: fedd e8bc 3d62 69bd 60a9 18bd 363a 61bd
00000330: 318e 9ebc 8085 b4bd 6660 9b3c afc5 08be
00000340: 4419 b53d 46a2 0b3e 2890 cabd 9670 75bc
00000350: e50e 813d 7c62 c6bd 6dc0 99bd 46e6 863d
00000360: 79cb efbd ac6b aebd 0742 ed3d 13b6 26bd
00000370: 935c 613d bcbc 393d ff19 7bbd c631 eebd
00000380: 2010 6b3d 21d8 1ebb 8567 c3bd 748a 0dbe
00000390: 4d2b 983d e172 1abd caad bebd becf 9dbd
000003a0: 6244 d3bc ef1b 083e 6ed6 053d 48e8 26be
000003b0: 3cd3 103d 4ba0 d33d a5d2 5dbe 3069 29be
000003c0: 7749 1dbe b708 ae3d 1c6e 70bd d585 463d
000003d0: ad07 b33d 6fb6 cf3d 9ae1 353e 5445 8fbd
000003e0: 803e 8ebd ee1c 453e 070b 82bd b94f e6bc
000003f0: 93aa ec3d 5088 cdbd 04af 9fbd 6aae 8cbd
